{"format": "graph-model", "generatedBy": "2.12.0", "convertedBy": "TensorFlow.js Converter v2.0.0", "userDefinedMetadata": {"signature": {"outputs": {"Identity:0": {"name": "Identity:0"}}}}, "modelTopology": {"node": [{"name": "ConstantFolding/PartitionedCall/model_1/tf.math.divide/truediv_recip", "op": "Const", "attr": {"value": {"tensor": {"dtype": "DT_FLOAT", "tensorShape": {"dim": [{"size": "1"}, {"size": "1"}, {"size": "1"}]}}}, "dtype": {"type": "DT_FLOAT"}}}, {"name": "21641", "op": "Const", "attr": {"value": {"tensor": {"dtype": "DT_FLOAT", "tensorShape": {"dim": [{"size": "1"}, {"size": "2"}, {"size": "8400"}]}}}, "dtype": {"type": "DT_FLOAT"}}}, {"name": "21633", "op": "Const", "attr": {"value": {"tensor": {"dtype": "DT_INT64", "tensorShape": {"dim": [{"size": "3"}]}}}, "dtype": {"type": "DT_INT64"}}}, {"name": "21635", "op": "Const", "attr": {"value": {"tensor": {"dtype": "DT_INT64", "tensorShape": {"dim": [{"size": "3"}]}}}, "dtype": {"type": "DT_INT64"}}}, {"name": "PartitionedCall/model_1/tf.strided_slice_19/ones_like", "op": "Const", "attr": {"value": {"tensor": {"dtype": "DT_INT64", "tensorShape": {"dim": [{"size": "3"}]}}}, "dtype": {"type": "DT_INT64"}}}, {"name": "21643", "op": "Const", "attr": {"value": {"tensor": {"dtype": "DT_FLOAT", "tensorShape": {"dim": [{"size": "1"}, {"size": "2"}, {"size": "8400"}]}}}, "dtype": {"type": "DT_FLOAT"}}}, {"name": "21627", "op": "Const", "attr": {"dtype": {"type": "DT_INT64"}, "value": {"tensor": {"dtype": "DT_INT64", "tensorShape": {"dim": [{"size": "3"}]}}}}}, {"name": "21629", "op": "Const", "attr": {"dtype": {"type": "DT_INT64"}, "value": {"tensor": {"dtype": "DT_INT64", "tensorShape": {"dim": [{"size": "3"}]}}}}}, {"name": "PartitionedCall/model_1/tf.strided_slice_16/StridedSlice/strides", "op": "Const", "attr": {"dtype": {"type": "DT_INT64"}, "value": {"tensor": {"dtype": "DT_INT64", "tensorShape": {"dim": [{"size": "3"}]}}}}}, {"name": "PartitionedCall/model_1/tf.reshape_3/Reshape/shape", "op": "Const", "attr": {"dtype": {"type": "DT_INT32"}, "value": {"tensor": {"dtype": "DT_INT32", "tensorShape": {"dim": [{"size": "4"}]}}}}}, {"name": "PartitionedCall/model_1/tf.compat.v1.transpose_1158/transpose/perm", "op": "Const", "attr": {"dtype": {"type": "DT_INT32"}, "value": {"tensor": {"dtype": "DT_INT32", "tensorShape": {"dim": [{"size": "4"}]}}}}}, {"name": "PartitionedCall/model_1/tf.compat.v1.transpose_1159/transpose/perm", "op": "Const", "attr": {"dtype": {"type": "DT_INT32"}, "value": {"tensor": {"dtype": "DT_INT32", "tensorShape": {"dim": [{"size": "4"}]}}}}}, {"name": "21631", "op": "Const", "attr": {"dtype": {"type": "DT_FLOAT"}, "value": {"tensor": {"dtype": "DT_FLOAT", "tensorShape": {"dim": [{"size": "1"}, {"size": "1"}, {"size": "16"}, {"size": "1"}]}}}}}, {"name": "PartitionedCall/model_1/tf.compat.v1.transpose_1162/transpose/perm", "op": "Const", "attr": {"value": {"tensor": {"dtype": "DT_INT32", "tensorShape": {"dim": [{"size": "4"}]}}}, "dtype": {"type": "DT_INT32"}}}, {"name": "PartitionedCall/model_1/tf.reshape_4/Reshape/shape", "op": "Const", "attr": {"value": {"tensor": {"dtype": "DT_INT32", "tensorShape": {"dim": [{"size": "3"}]}}}, "dtype": {"type": "DT_INT32"}}}, {"name": "21637", "op": "Const", "attr": {"value": {"tensor": {"dtype": "DT_INT64", "tensorShape": {"dim": [{"size": "3"}]}}}, "dtype": {"type": "DT_INT64"}}}, {"name": "21639", "op": "Const", "attr": {"value": {"tensor": {"dtype": "DT_INT64", "tensorShape": {"dim": [{"size": "3"}]}}}, "dtype": {"type": "DT_INT64"}}}, {"name": "PartitionedCall/model_1/tf.strided_slice_18/ones_like", "op": "Const", "attr": {"dtype": {"type": "DT_INT64"}, "value": {"tensor": {"dtype": "DT_INT64", "tensorShape": {"dim": [{"size": "3"}]}}}}}, {"name": "PartitionedCall/model_1/tf.concat_594/concat/axis", "op": "Const", "attr": {"dtype": {"type": "DT_INT32"}, "value": {"tensor": {"dtype": "DT_INT32", "tensorShape": {}}}}}, {"name": "PartitionedCall/model_1/tf.math.multiply_195/Mul/y", "op": "Const", "attr": {"dtype": {"type": "DT_FLOAT"}, "value": {"tensor": {"dtype": "DT_FLOAT", "tensorShape": {"dim": [{"size": "1"}, {"size": "1"}, {"size": "8400"}]}}}}}, {"name": "21569", "op": "Const", "attr": {"dtype": {"type": "DT_FLOAT"}, "value": {"tensor": {"dtype": "DT_FLOAT", "tensorShape": {"dim": [{"size": "3"}, {"size": "3"}, {"size": "64"}, {"size": "64"}]}}}}}, {"name": "21577", "op": "Const", "attr": {"value": {"tensor": {"dtype": "DT_FLOAT", "tensorShape": {"dim": [{"size": "64"}]}}}, "dtype": {"type": "DT_FLOAT"}}}, {"name": "21593", "op": "Const", "attr": {"dtype": {"type": "DT_FLOAT"}, "value": {"tensor": {"dtype": "DT_FLOAT", "tensorShape": {"dim": [{"size": "3"}, {"size": "3"}, {"size": "64"}, {"size": "64"}]}}}}}, {"name": "21601", "op": "Const", "attr": {"dtype": {"type": "DT_FLOAT"}, "value": {"tensor": {"dtype": "DT_FLOAT", "tensorShape": {"dim": [{"size": "64"}]}}}}}, {"name": "21617", "op": "Const", "attr": {"dtype": {"type": "DT_FLOAT"}, "value": {"tensor": {"dtype": "DT_FLOAT", "tensorShape": {"dim": [{"size": "1"}, {"size": "1"}, {"size": "64"}, {"size": "64"}]}}}}}, {"name": "21623", "op": "Const", "attr": {"dtype": {"type": "DT_FLOAT"}, "value": {"tensor": {"dtype": "DT_FLOAT", "tensorShape": {"dim": [{"size": "64"}]}}}}}, {"name": "21567", "op": "Const", "attr": {"dtype": {"type": "DT_FLOAT"}, "value": {"tensor": {"dtype": "DT_FLOAT", "tensorShape": {"dim": [{"size": "3"}, {"size": "3"}, {"size": "64"}, {"size": "64"}]}}}}}, {"name": "21575", "op": "Const", "attr": {"dtype": {"type": "DT_FLOAT"}, "value": {"tensor": {"dtype": "DT_FLOAT", "tensorShape": {"dim": [{"size": "64"}]}}}}}, {"name": "21591", "op": "Const", "attr": {"dtype": {"type": "DT_FLOAT"}, "value": {"tensor": {"dtype": "DT_FLOAT", "tensorShape": {"dim": [{"size": "3"}, {"size": "3"}, {"size": "64"}, {"size": "64"}]}}}}}, {"name": "21599", "op": "Const", "attr": {"dtype": {"type": "DT_FLOAT"}, "value": {"tensor": {"dtype": "DT_FLOAT", "tensorShape": {"dim": [{"size": "64"}]}}}}}, {"name": "21615", "op": "Const", "attr": {"dtype": {"type": "DT_FLOAT"}, "value": {"tensor": {"dtype": "DT_FLOAT", "tensorShape": {"dim": [{"size": "1"}, {"size": "1"}, {"size": "64"}, {"size": "20"}]}}}}}, {"name": "21625", "op": "Const", "attr": {"value": {"tensor": {"dtype": "DT_FLOAT", "tensorShape": {"dim": [{"size": "20"}]}}}, "dtype": {"type": "DT_FLOAT"}}}, {"name": "PartitionedCall/model_1/tf.concat_10/concat/axis", "op": "Const", "attr": {"dtype": {"type": "DT_INT32"}, "value": {"tensor": {"dtype": "DT_INT32", "tensorShape": {}}}}}, {"name": "PartitionedCall/model_1/tf.compat.v1.transpose/transpose/perm", "op": "Const", "attr": {"dtype": {"type": "DT_INT32"}, "value": {"tensor": {"dtype": "DT_INT32", "tensorShape": {"dim": [{"size": "4"}]}}}}}, {"name": "PartitionedCall/model_1/tf.reshape/Reshape/shape", "op": "Const", "attr": {"value": {"tensor": {"dtype": "DT_INT32", "tensorShape": {"dim": [{"size": "3"}]}}}, "dtype": {"type": "DT_INT32"}}}, {"name": "21565", "op": "Const", "attr": {"dtype": {"type": "DT_FLOAT"}, "value": {"tensor": {"dtype": "DT_FLOAT", "tensorShape": {"dim": [{"size": "3"}, {"size": "3"}, {"size": "128"}, {"size": "64"}]}}}}}, {"name": "21573", "op": "Const", "attr": {"dtype": {"type": "DT_FLOAT"}, "value": {"tensor": {"dtype": "DT_FLOAT", "tensorShape": {"dim": [{"size": "64"}]}}}}}, {"name": "21589", "op": "Const", "attr": {"dtype": {"type": "DT_FLOAT"}, "value": {"tensor": {"dtype": "DT_FLOAT", "tensorShape": {"dim": [{"size": "3"}, {"size": "3"}, {"size": "64"}, {"size": "64"}]}}}}}, {"name": "21597", "op": "Const", "attr": {"dtype": {"type": "DT_FLOAT"}, "value": {"tensor": {"dtype": "DT_FLOAT", "tensorShape": {"dim": [{"size": "64"}]}}}}}, {"name": "21613", "op": "Const", "attr": {"dtype": {"type": "DT_FLOAT"}, "value": {"tensor": {"dtype": "DT_FLOAT", "tensorShape": {"dim": [{"size": "1"}, {"size": "1"}, {"size": "64"}, {"size": "64"}]}}}}}, {"name": "21619", "op": "Const", "attr": {"dtype": {"type": "DT_FLOAT"}, "value": {"tensor": {"dtype": "DT_FLOAT", "tensorShape": {"dim": [{"size": "64"}]}}}}}, {"name": "21563", "op": "Const", "attr": {"value": {"tensor": {"dtype": "DT_FLOAT", "tensorShape": {"dim": [{"size": "3"}, {"size": "3"}, {"size": "128"}, {"size": "64"}]}}}, "dtype": {"type": "DT_FLOAT"}}}, {"name": "21571", "op": "Const", "attr": {"dtype": {"type": "DT_FLOAT"}, "value": {"tensor": {"dtype": "DT_FLOAT", "tensorShape": {"dim": [{"size": "64"}]}}}}}, {"name": "21587", "op": "Const", "attr": {"dtype": {"type": "DT_FLOAT"}, "value": {"tensor": {"dtype": "DT_FLOAT", "tensorShape": {"dim": [{"size": "3"}, {"size": "3"}, {"size": "64"}, {"size": "64"}]}}}}}, {"name": "21595", "op": "Const", "attr": {"dtype": {"type": "DT_FLOAT"}, "value": {"tensor": {"dtype": "DT_FLOAT", "tensorShape": {"dim": [{"size": "64"}]}}}}}, {"name": "21611", "op": "Const", "attr": {"dtype": {"type": "DT_FLOAT"}, "value": {"tensor": {"dtype": "DT_FLOAT", "tensorShape": {"dim": [{"size": "1"}, {"size": "1"}, {"size": "64"}, {"size": "20"}]}}}}}, {"name": "21621", "op": "Const", "attr": {"dtype": {"type": "DT_FLOAT"}, "value": {"tensor": {"dtype": "DT_FLOAT", "tensorShape": {"dim": [{"size": "20"}]}}}}}, {"name": "PartitionedCall/model_1/tf.concat_13/concat/axis", "op": "Const", "attr": {"dtype": {"type": "DT_INT32"}, "value": {"tensor": {"dtype": "DT_INT32", "tensorShape": {}}}}}, {"name": "PartitionedCall/model_1/tf.compat.v1.transpose_1/transpose/perm", "op": "Const", "attr": {"dtype": {"type": "DT_INT32"}, "value": {"tensor": {"dtype": "DT_INT32", "tensorShape": {"dim": [{"size": "4"}]}}}}}, {"name": "PartitionedCall/model_1/tf.reshape_1/Reshape/shape", "op": "Const", "attr": {"value": {"tensor": {"dtype": "DT_INT32", "tensorShape": {"dim": [{"size": "3"}]}}}, "dtype": {"type": "DT_INT32"}}}, {"name": "21557", "op": "Const", "attr": {"dtype": {"type": "DT_FLOAT"}, "value": {"tensor": {"dtype": "DT_FLOAT", "tensorShape": {"dim": [{"size": "3"}, {"size": "3"}, {"size": "256"}, {"size": "64"}]}}}}}, {"name": "21561", "op": "Const", "attr": {"dtype": {"type": "DT_FLOAT"}, "value": {"tensor": {"dtype": "DT_FLOAT", "tensorShape": {"dim": [{"size": "64"}]}}}}}, {"name": "21581", "op": "Const", "attr": {"value": {"tensor": {"dtype": "DT_FLOAT", "tensorShape": {"dim": [{"size": "3"}, {"size": "3"}, {"size": "64"}, {"size": "64"}]}}}, "dtype": {"type": "DT_FLOAT"}}}, {"name": "21585", "op": "Const", "attr": {"dtype": {"type": "DT_FLOAT"}, "value": {"tensor": {"dtype": "DT_FLOAT", "tensorShape": {"dim": [{"size": "64"}]}}}}}, {"name": "21605", "op": "Const", "attr": {"value": {"tensor": {"dtype": "DT_FLOAT", "tensorShape": {"dim": [{"size": "1"}, {"size": "1"}, {"size": "64"}, {"size": "64"}]}}}, "dtype": {"type": "DT_FLOAT"}}}, {"name": "21609", "op": "Const", "attr": {"dtype": {"type": "DT_FLOAT"}, "value": {"tensor": {"dtype": "DT_FLOAT", "tensorShape": {"dim": [{"size": "64"}]}}}}}, {"name": "21547", "op": "Const", "attr": {"dtype": {"type": "DT_INT64"}, "value": {"tensor": {"dtype": "DT_INT64", "tensorShape": {"dim": [{"size": "4"}]}}}}}, {"name": "21549", "op": "Const", "attr": {"dtype": {"type": "DT_INT64"}, "value": {"tensor": {"dtype": "DT_INT64", "tensorShape": {"dim": [{"size": "4"}]}}}}}, {"name": "PartitionedCall/model_1/tf.strided_slice_14/ones_like", "op": "Const", "attr": {"dtype": {"type": "DT_INT64"}, "value": {"tensor": {"dtype": "DT_INT64", "tensorShape": {"dim": [{"size": "4"}]}}}}}, {"name": "21517", "op": "Const", "attr": {"dtype": {"type": "DT_INT64"}, "value": {"tensor": {"dtype": "DT_INT64", "tensorShape": {"dim": [{"size": "4"}]}}}}}, {"name": "21519", "op": "Const", "attr": {"dtype": {"type": "DT_INT64"}, "value": {"tensor": {"dtype": "DT_INT64", "tensorShape": {"dim": [{"size": "4"}]}}}}}, {"name": "PartitionedCall/model_1/tf.strided_slice_12/ones_like", "op": "Const", "attr": {"dtype": {"type": "DT_INT64"}, "value": {"tensor": {"dtype": "DT_INT64", "tensorShape": {"dim": [{"size": "4"}]}}}}}, {"name": "21487", "op": "Const", "attr": {"dtype": {"type": "DT_INT64"}, "value": {"tensor": {"dtype": "DT_INT64", "tensorShape": {"dim": [{"size": "4"}]}}}}}, {"name": "21489", "op": "Const", "attr": {"dtype": {"type": "DT_INT64"}, "value": {"tensor": {"dtype": "DT_INT64", "tensorShape": {"dim": [{"size": "4"}]}}}}}, {"name": "PartitionedCall/model_1/tf.strided_slice_10/ones_like", "op": "Const", "attr": {"value": {"tensor": {"dtype": "DT_INT64", "tensorShape": {"dim": [{"size": "4"}]}}}, "dtype": {"type": "DT_INT64"}}}, {"name": "PartitionedCall/model_1/lambda_1//model.13/Resize/size", "op": "Const", "attr": {"dtype": {"type": "DT_INT32"}, "value": {"tensor": {"dtype": "DT_INT32", "tensorShape": {"dim": [{"size": "2"}]}}}}}, {"name": "PartitionedCall/model_1/tf.concat_7/concat/axis", "op": "Const", "attr": {"dtype": {"type": "DT_INT32"}, "value": {"tensor": {"dtype": "DT_INT32", "tensorShape": {}}}}}, {"name": "21471", "op": "Const", "attr": {"value": {"tensor": {"dtype": "DT_FLOAT", "tensorShape": {"dim": [{"size": "1"}, {"size": "1"}, {"size": "192"}, {"size": "64"}]}}}, "dtype": {"type": "DT_FLOAT"}}}, {"name": "21473", "op": "Const", "attr": {"dtype": {"type": "DT_FLOAT"}, "value": {"tensor": {"dtype": "DT_FLOAT", "tensorShape": {"dim": [{"size": "64"}]}}}}}, {"name": "21475", "op": "Const", "attr": {"dtype": {"type": "DT_INT64"}, "value": {"tensor": {"dtype": "DT_INT64", "tensorShape": {"dim": [{"size": "4"}]}}}}}, {"name": "21477", "op": "Const", "attr": {"dtype": {"type": "DT_INT64"}, "value": {"tensor": {"dtype": "DT_INT64", "tensorShape": {"dim": [{"size": "4"}]}}}}}, {"name": "PartitionedCall/model_1/tf.strided_slice_11/ones_like", "op": "Const", "attr": {"dtype": {"type": "DT_INT64"}, "value": {"tensor": {"dtype": "DT_INT64", "tensorShape": {"dim": [{"size": "4"}]}}}}}, {"name": "21479", "op": "Const", "attr": {"value": {"tensor": {"dtype": "DT_FLOAT", "tensorShape": {"dim": [{"size": "3"}, {"size": "3"}, {"size": "32"}, {"size": "32"}]}}}, "dtype": {"type": "DT_FLOAT"}}}, {"name": "21481", "op": "Const", "attr": {"dtype": {"type": "DT_FLOAT"}, "value": {"tensor": {"dtype": "DT_FLOAT", "tensorShape": {"dim": [{"size": "32"}]}}}}}, {"name": "21483", "op": "Const", "attr": {"dtype": {"type": "DT_FLOAT"}, "value": {"tensor": {"dtype": "DT_FLOAT", "tensorShape": {"dim": [{"size": "3"}, {"size": "3"}, {"size": "32"}, {"size": "32"}]}}}}}, {"name": "21485", "op": "Const", "attr": {"dtype": {"type": "DT_FLOAT"}, "value": {"tensor": {"dtype": "DT_FLOAT", "tensorShape": {"dim": [{"size": "32"}]}}}}}, {"name": "PartitionedCall/model_1/tf.concat_8/concat/axis", "op": "Const", "attr": {"dtype": {"type": "DT_INT32"}, "value": {"tensor": {"dtype": "DT_INT32", "tensorShape": {}}}}}, {"name": "21491", "op": "Const", "attr": {"value": {"tensor": {"dtype": "DT_FLOAT", "tensorShape": {"dim": [{"size": "1"}, {"size": "1"}, {"size": "96"}, {"size": "64"}]}}}, "dtype": {"type": "DT_FLOAT"}}}, {"name": "21493", "op": "Const", "attr": {"value": {"tensor": {"dtype": "DT_FLOAT", "tensorShape": {"dim": [{"size": "64"}]}}}, "dtype": {"type": "DT_FLOAT"}}}, {"name": "21495", "op": "Const", "attr": {"value": {"tensor": {"dtype": "DT_INT32", "tensorShape": {"dim": [{"size": "4"}, {"size": "2"}]}}}, "dtype": {"type": "DT_INT32"}}}, {"name": "21497", "op": "Const", "attr": {"dtype": {"type": "DT_FLOAT"}, "value": {"tensor": {"dtype": "DT_FLOAT", "tensorShape": {"dim": [{"size": "3"}, {"size": "3"}, {"size": "64"}, {"size": "64"}]}}}}}, {"name": "21499", "op": "Const", "attr": {"dtype": {"type": "DT_FLOAT"}, "value": {"tensor": {"dtype": "DT_FLOAT", "tensorShape": {"dim": [{"size": "64"}]}}}}}, {"name": "21463", "op": "Const", "attr": {"dtype": {"type": "DT_INT64"}, "value": {"tensor": {"dtype": "DT_INT64", "tensorShape": {"dim": [{"size": "4"}]}}}}}, {"name": "21465", "op": "Const", "attr": {"dtype": {"type": "DT_INT64"}, "value": {"tensor": {"dtype": "DT_INT64", "tensorShape": {"dim": [{"size": "4"}]}}}}}, {"name": "PartitionedCall/model_1/tf.strided_slice_8/ones_like", "op": "Const", "attr": {"value": {"tensor": {"dtype": "DT_INT64", "tensorShape": {"dim": [{"size": "4"}]}}}, "dtype": {"type": "DT_INT64"}}}, {"name": "PartitionedCall/model_1/lambda//model.10/Resize/size", "op": "Const", "attr": {"dtype": {"type": "DT_INT32"}, "value": {"tensor": {"dtype": "DT_INT32", "tensorShape": {"dim": [{"size": "2"}]}}}}}, {"name": "PartitionedCall/model_1/tf.concat_5/concat/axis", "op": "Const", "attr": {"dtype": {"type": "DT_INT32"}, "value": {"tensor": {"dtype": "DT_INT32", "tensorShape": {}}}}}, {"name": "21447", "op": "Const", "attr": {"dtype": {"type": "DT_FLOAT"}, "value": {"tensor": {"dtype": "DT_FLOAT", "tensorShape": {"dim": [{"size": "1"}, {"size": "1"}, {"size": "384"}, {"size": "128"}]}}}}}, {"name": "21449", "op": "Const", "attr": {"dtype": {"type": "DT_FLOAT"}, "value": {"tensor": {"dtype": "DT_FLOAT", "tensorShape": {"dim": [{"size": "128"}]}}}}}, {"name": "21451", "op": "Const", "attr": {"dtype": {"type": "DT_INT64"}, "value": {"tensor": {"dtype": "DT_INT64", "tensorShape": {"dim": [{"size": "4"}]}}}}}, {"name": "21453", "op": "Const", "attr": {"dtype": {"type": "DT_INT64"}, "value": {"tensor": {"dtype": "DT_INT64", "tensorShape": {"dim": [{"size": "4"}]}}}}}, {"name": "PartitionedCall/model_1/tf.strided_slice_9/ones_like", "op": "Const", "attr": {"dtype": {"type": "DT_INT64"}, "value": {"tensor": {"dtype": "DT_INT64", "tensorShape": {"dim": [{"size": "4"}]}}}}}, {"name": "21455", "op": "Const", "attr": {"dtype": {"type": "DT_FLOAT"}, "value": {"tensor": {"dtype": "DT_FLOAT", "tensorShape": {"dim": [{"size": "3"}, {"size": "3"}, {"size": "64"}, {"size": "64"}]}}}}}, {"name": "21457", "op": "Const", "attr": {"value": {"tensor": {"dtype": "DT_FLOAT", "tensorShape": {"dim": [{"size": "64"}]}}}, "dtype": {"type": "DT_FLOAT"}}}, {"name": "21459", "op": "Const", "attr": {"value": {"tensor": {"dtype": "DT_FLOAT", "tensorShape": {"dim": [{"size": "3"}, {"size": "3"}, {"size": "64"}, {"size": "64"}]}}}, "dtype": {"type": "DT_FLOAT"}}}, {"name": "21461", "op": "Const", "attr": {"value": {"tensor": {"dtype": "DT_FLOAT", "tensorShape": {"dim": [{"size": "64"}]}}}, "dtype": {"type": "DT_FLOAT"}}}, {"name": "PartitionedCall/model_1/tf.concat_6/concat/axis", "op": "Const", "attr": {"value": {"tensor": {"dtype": "DT_INT32", "tensorShape": {}}}, "dtype": {"type": "DT_INT32"}}}, {"name": "21467", "op": "Const", "attr": {"dtype": {"type": "DT_FLOAT"}, "value": {"tensor": {"dtype": "DT_FLOAT", "tensorShape": {"dim": [{"size": "1"}, {"size": "1"}, {"size": "192"}, {"size": "128"}]}}}}}, {"name": "21469", "op": "Const", "attr": {"value": {"tensor": {"dtype": "DT_FLOAT", "tensorShape": {"dim": [{"size": "128"}]}}}, "dtype": {"type": "DT_FLOAT"}}}, {"name": "PartitionedCall/model_1/tf.concat_9/concat/axis", "op": "Const", "attr": {"dtype": {"type": "DT_INT32"}, "value": {"tensor": {"dtype": "DT_INT32", "tensorShape": {}}}}}, {"name": "21501", "op": "Const", "attr": {"dtype": {"type": "DT_FLOAT"}, "value": {"tensor": {"dtype": "DT_FLOAT", "tensorShape": {"dim": [{"size": "1"}, {"size": "1"}, {"size": "192"}, {"size": "128"}]}}}}}, {"name": "21503", "op": "Const", "attr": {"value": {"tensor": {"dtype": "DT_FLOAT", "tensorShape": {"dim": [{"size": "128"}]}}}, "dtype": {"type": "DT_FLOAT"}}}, {"name": "21505", "op": "Const", "attr": {"dtype": {"type": "DT_INT64"}, "value": {"tensor": {"dtype": "DT_INT64", "tensorShape": {"dim": [{"size": "4"}]}}}}}, {"name": "21507", "op": "Const", "attr": {"dtype": {"type": "DT_INT64"}, "value": {"tensor": {"dtype": "DT_INT64", "tensorShape": {"dim": [{"size": "4"}]}}}}}, {"name": "PartitionedCall/model_1/tf.strided_slice_13/ones_like", "op": "Const", "attr": {"value": {"tensor": {"dtype": "DT_INT64", "tensorShape": {"dim": [{"size": "4"}]}}}, "dtype": {"type": "DT_INT64"}}}, {"name": "21509", "op": "Const", "attr": {"value": {"tensor": {"dtype": "DT_FLOAT", "tensorShape": {"dim": [{"size": "3"}, {"size": "3"}, {"size": "64"}, {"size": "64"}]}}}, "dtype": {"type": "DT_FLOAT"}}}, {"name": "21511", "op": "Const", "attr": {"value": {"tensor": {"dtype": "DT_FLOAT", "tensorShape": {"dim": [{"size": "64"}]}}}, "dtype": {"type": "DT_FLOAT"}}}, {"name": "21513", "op": "Const", "attr": {"value": {"tensor": {"dtype": "DT_FLOAT", "tensorShape": {"dim": [{"size": "3"}, {"size": "3"}, {"size": "64"}, {"size": "64"}]}}}, "dtype": {"type": "DT_FLOAT"}}}, {"name": "21515", "op": "Const", "attr": {"dtype": {"type": "DT_FLOAT"}, "value": {"tensor": {"dtype": "DT_FLOAT", "tensorShape": {"dim": [{"size": "64"}]}}}}}, {"name": "PartitionedCall/model_1/tf.concat_11/concat/axis", "op": "Const", "attr": {"value": {"tensor": {"dtype": "DT_INT32", "tensorShape": {}}}, "dtype": {"type": "DT_INT32"}}}, {"name": "21521", "op": "Const", "attr": {"dtype": {"type": "DT_FLOAT"}, "value": {"tensor": {"dtype": "DT_FLOAT", "tensorShape": {"dim": [{"size": "1"}, {"size": "1"}, {"size": "192"}, {"size": "128"}]}}}}}, {"name": "21523", "op": "Const", "attr": {"value": {"tensor": {"dtype": "DT_FLOAT", "tensorShape": {"dim": [{"size": "128"}]}}}, "dtype": {"type": "DT_FLOAT"}}}, {"name": "21525", "op": "Const", "attr": {"value": {"tensor": {"dtype": "DT_INT32", "tensorShape": {"dim": [{"size": "4"}, {"size": "2"}]}}}, "dtype": {"type": "DT_INT32"}}}, {"name": "21527", "op": "Const", "attr": {"dtype": {"type": "DT_FLOAT"}, "value": {"tensor": {"dtype": "DT_FLOAT", "tensorShape": {"dim": [{"size": "3"}, {"size": "3"}, {"size": "128"}, {"size": "128"}]}}}}}, {"name": "21529", "op": "Const", "attr": {"dtype": {"type": "DT_FLOAT"}, "value": {"tensor": {"dtype": "DT_FLOAT", "tensorShape": {"dim": [{"size": "128"}]}}}}}, {"name": "21431", "op": "Const", "attr": {"value": {"tensor": {"dtype": "DT_INT64", "tensorShape": {"dim": [{"size": "4"}]}}}, "dtype": {"type": "DT_INT64"}}}, {"name": "21433", "op": "Const", "attr": {"value": {"tensor": {"dtype": "DT_INT64", "tensorShape": {"dim": [{"size": "4"}]}}}, "dtype": {"type": "DT_INT64"}}}, {"name": "PartitionedCall/model_1/tf.strided_slice_6/ones_like", "op": "Const", "attr": {"dtype": {"type": "DT_INT64"}, "value": {"tensor": {"dtype": "DT_INT64", "tensorShape": {"dim": [{"size": "4"}]}}}}}, {"name": "21401", "op": "Const", "attr": {"value": {"tensor": {"dtype": "DT_INT64", "tensorShape": {"dim": [{"size": "4"}]}}}, "dtype": {"type": "DT_INT64"}}}, {"name": "21403", "op": "Const", "attr": {"value": {"tensor": {"dtype": "DT_INT64", "tensorShape": {"dim": [{"size": "4"}]}}}, "dtype": {"type": "DT_INT64"}}}, {"name": "PartitionedCall/model_1/tf.strided_slice_4/ones_like", "op": "Const", "attr": {"dtype": {"type": "DT_INT64"}, "value": {"tensor": {"dtype": "DT_INT64", "tensorShape": {"dim": [{"size": "4"}]}}}}}, {"name": "21363", "op": "Const", "attr": {"dtype": {"type": "DT_INT64"}, "value": {"tensor": {"dtype": "DT_INT64", "tensorShape": {"dim": [{"size": "4"}]}}}}}, {"name": "21365", "op": "Const", "attr": {"value": {"tensor": {"dtype": "DT_INT64", "tensorShape": {"dim": [{"size": "4"}]}}}, "dtype": {"type": "DT_INT64"}}}, {"name": "PartitionedCall/model_1/tf.strided_slice_2/ones_like", "op": "Const", "attr": {"dtype": {"type": "DT_INT64"}, "value": {"tensor": {"dtype": "DT_INT64", "tensorShape": {"dim": [{"size": "4"}]}}}}}, {"name": "21325", "op": "Const", "attr": {"value": {"tensor": {"dtype": "DT_INT64", "tensorShape": {"dim": [{"size": "4"}]}}}, "dtype": {"type": "DT_INT64"}}}, {"name": "21327", "op": "Const", "attr": {"value": {"tensor": {"dtype": "DT_INT64", "tensorShape": {"dim": [{"size": "4"}]}}}, "dtype": {"type": "DT_INT64"}}}, {"name": "PartitionedCall/model_1/tf.strided_slice/ones_like", "op": "Const", "attr": {"value": {"tensor": {"dtype": "DT_INT64", "tensorShape": {"dim": [{"size": "4"}]}}}, "dtype": {"type": "DT_INT64"}}}, {"name": "21297", "op": "Const", "attr": {"value": {"tensor": {"dtype": "DT_INT32", "tensorShape": {"dim": [{"size": "4"}, {"size": "2"}]}}}, "dtype": {"type": "DT_INT32"}}}, {"name": "21299", "op": "Const", "attr": {"value": {"tensor": {"dtype": "DT_FLOAT", "tensorShape": {"dim": [{"size": "3"}, {"size": "3"}, {"size": "3"}, {"size": "16"}]}}}, "dtype": {"type": "DT_FLOAT"}}}, {"name": "21301", "op": "Const", "attr": {"dtype": {"type": "DT_FLOAT"}, "value": {"tensor": {"dtype": "DT_FLOAT", "tensorShape": {"dim": [{"size": "16"}]}}}}}, {"name": "21303", "op": "Const", "attr": {"value": {"tensor": {"dtype": "DT_INT32", "tensorShape": {"dim": [{"size": "4"}, {"size": "2"}]}}}, "dtype": {"type": "DT_INT32"}}}, {"name": "21305", "op": "Const", "attr": {"value": {"tensor": {"dtype": "DT_FLOAT", "tensorShape": {"dim": [{"size": "3"}, {"size": "3"}, {"size": "16"}, {"size": "32"}]}}}, "dtype": {"type": "DT_FLOAT"}}}, {"name": "21307", "op": "Const", "attr": {"value": {"tensor": {"dtype": "DT_FLOAT", "tensorShape": {"dim": [{"size": "32"}]}}}, "dtype": {"type": "DT_FLOAT"}}}, {"name": "21309", "op": "Const", "attr": {"value": {"tensor": {"dtype": "DT_FLOAT", "tensorShape": {"dim": [{"size": "1"}, {"size": "1"}, {"size": "32"}, {"size": "32"}]}}}, "dtype": {"type": "DT_FLOAT"}}}, {"name": "21311", "op": "Const", "attr": {"dtype": {"type": "DT_FLOAT"}, "value": {"tensor": {"dtype": "DT_FLOAT", "tensorShape": {"dim": [{"size": "32"}]}}}}}, {"name": "21313", "op": "Const", "attr": {"value": {"tensor": {"dtype": "DT_INT64", "tensorShape": {"dim": [{"size": "4"}]}}}, "dtype": {"type": "DT_INT64"}}}, {"name": "21315", "op": "Const", "attr": {"dtype": {"type": "DT_INT64"}, "value": {"tensor": {"dtype": "DT_INT64", "tensorShape": {"dim": [{"size": "4"}]}}}}}, {"name": "PartitionedCall/model_1/tf.strided_slice_1/ones_like", "op": "Const", "attr": {"value": {"tensor": {"dtype": "DT_INT64", "tensorShape": {"dim": [{"size": "4"}]}}}, "dtype": {"type": "DT_INT64"}}}, {"name": "21317", "op": "Const", "attr": {"dtype": {"type": "DT_FLOAT"}, "value": {"tensor": {"dtype": "DT_FLOAT", "tensorShape": {"dim": [{"size": "3"}, {"size": "3"}, {"size": "16"}, {"size": "16"}]}}}}}, {"name": "21319", "op": "Const", "attr": {"value": {"tensor": {"dtype": "DT_FLOAT", "tensorShape": {"dim": [{"size": "16"}]}}}, "dtype": {"type": "DT_FLOAT"}}}, {"name": "21321", "op": "Const", "attr": {"value": {"tensor": {"dtype": "DT_FLOAT", "tensorShape": {"dim": [{"size": "3"}, {"size": "3"}, {"size": "16"}, {"size": "16"}]}}}, "dtype": {"type": "DT_FLOAT"}}}, {"name": "21323", "op": "Const", "attr": {"dtype": {"type": "DT_FLOAT"}, "value": {"tensor": {"dtype": "DT_FLOAT", "tensorShape": {"dim": [{"size": "16"}]}}}}}, {"name": "PartitionedCall/model_1/tf.concat/concat/axis", "op": "Const", "attr": {"value": {"tensor": {"dtype": "DT_INT32", "tensorShape": {}}}, "dtype": {"type": "DT_INT32"}}}, {"name": "21329", "op": "Const", "attr": {"value": {"tensor": {"dtype": "DT_FLOAT", "tensorShape": {"dim": [{"size": "1"}, {"size": "1"}, {"size": "48"}, {"size": "32"}]}}}, "dtype": {"type": "DT_FLOAT"}}}, {"name": "21331", "op": "Const", "attr": {"value": {"tensor": {"dtype": "DT_FLOAT", "tensorShape": {"dim": [{"size": "32"}]}}}, "dtype": {"type": "DT_FLOAT"}}}, {"name": "21333", "op": "Const", "attr": {"value": {"tensor": {"dtype": "DT_INT32", "tensorShape": {"dim": [{"size": "4"}, {"size": "2"}]}}}, "dtype": {"type": "DT_INT32"}}}, {"name": "21335", "op": "Const", "attr": {"value": {"tensor": {"dtype": "DT_FLOAT", "tensorShape": {"dim": [{"size": "3"}, {"size": "3"}, {"size": "32"}, {"size": "64"}]}}}, "dtype": {"type": "DT_FLOAT"}}}, {"name": "21337", "op": "Const", "attr": {"dtype": {"type": "DT_FLOAT"}, "value": {"tensor": {"dtype": "DT_FLOAT", "tensorShape": {"dim": [{"size": "64"}]}}}}}, {"name": "21339", "op": "Const", "attr": {"value": {"tensor": {"dtype": "DT_FLOAT", "tensorShape": {"dim": [{"size": "1"}, {"size": "1"}, {"size": "64"}, {"size": "64"}]}}}, "dtype": {"type": "DT_FLOAT"}}}, {"name": "21341", "op": "Const", "attr": {"value": {"tensor": {"dtype": "DT_FLOAT", "tensorShape": {"dim": [{"size": "64"}]}}}, "dtype": {"type": "DT_FLOAT"}}}, {"name": "21343", "op": "Const", "attr": {"value": {"tensor": {"dtype": "DT_INT64", "tensorShape": {"dim": [{"size": "4"}]}}}, "dtype": {"type": "DT_INT64"}}}, {"name": "21345", "op": "Const", "attr": {"value": {"tensor": {"dtype": "DT_INT64", "tensorShape": {"dim": [{"size": "4"}]}}}, "dtype": {"type": "DT_INT64"}}}, {"name": "PartitionedCall/model_1/tf.strided_slice_3/ones_like", "op": "Const", "attr": {"dtype": {"type": "DT_INT64"}, "value": {"tensor": {"dtype": "DT_INT64", "tensorShape": {"dim": [{"size": "4"}]}}}}}, {"name": "21347", "op": "Const", "attr": {"dtype": {"type": "DT_FLOAT"}, "value": {"tensor": {"dtype": "DT_FLOAT", "tensorShape": {"dim": [{"size": "3"}, {"size": "3"}, {"size": "32"}, {"size": "32"}]}}}}}, {"name": "21349", "op": "Const", "attr": {"value": {"tensor": {"dtype": "DT_FLOAT", "tensorShape": {"dim": [{"size": "32"}]}}}, "dtype": {"type": "DT_FLOAT"}}}, {"name": "21351", "op": "Const", "attr": {"value": {"tensor": {"dtype": "DT_FLOAT", "tensorShape": {"dim": [{"size": "3"}, {"size": "3"}, {"size": "32"}, {"size": "32"}]}}}, "dtype": {"type": "DT_FLOAT"}}}, {"name": "21353", "op": "Const", "attr": {"dtype": {"type": "DT_FLOAT"}, "value": {"tensor": {"dtype": "DT_FLOAT", "tensorShape": {"dim": [{"size": "32"}]}}}}}, {"name": "21355", "op": "Const", "attr": {"value": {"tensor": {"dtype": "DT_FLOAT", "tensorShape": {"dim": [{"size": "3"}, {"size": "3"}, {"size": "32"}, {"size": "32"}]}}}, "dtype": {"type": "DT_FLOAT"}}}, {"name": "21357", "op": "Const", "attr": {"value": {"tensor": {"dtype": "DT_FLOAT", "tensorShape": {"dim": [{"size": "32"}]}}}, "dtype": {"type": "DT_FLOAT"}}}, {"name": "21359", "op": "Const", "attr": {"dtype": {"type": "DT_FLOAT"}, "value": {"tensor": {"dtype": "DT_FLOAT", "tensorShape": {"dim": [{"size": "3"}, {"size": "3"}, {"size": "32"}, {"size": "32"}]}}}}}, {"name": "21361", "op": "Const", "attr": {"value": {"tensor": {"dtype": "DT_FLOAT", "tensorShape": {"dim": [{"size": "32"}]}}}, "dtype": {"type": "DT_FLOAT"}}}, {"name": "PartitionedCall/model_1/tf.concat_1/concat/axis", "op": "Const", "attr": {"value": {"tensor": {"dtype": "DT_INT32", "tensorShape": {}}}, "dtype": {"type": "DT_INT32"}}}, {"name": "21367", "op": "Const", "attr": {"value": {"tensor": {"dtype": "DT_FLOAT", "tensorShape": {"dim": [{"size": "1"}, {"size": "1"}, {"size": "128"}, {"size": "64"}]}}}, "dtype": {"type": "DT_FLOAT"}}}, {"name": "21369", "op": "Const", "attr": {"value": {"tensor": {"dtype": "DT_FLOAT", "tensorShape": {"dim": [{"size": "64"}]}}}, "dtype": {"type": "DT_FLOAT"}}}, {"name": "21371", "op": "Const", "attr": {"dtype": {"type": "DT_INT32"}, "value": {"tensor": {"dtype": "DT_INT32", "tensorShape": {"dim": [{"size": "4"}, {"size": "2"}]}}}}}, {"name": "21373", "op": "Const", "attr": {"value": {"tensor": {"dtype": "DT_FLOAT", "tensorShape": {"dim": [{"size": "3"}, {"size": "3"}, {"size": "64"}, {"size": "128"}]}}}, "dtype": {"type": "DT_FLOAT"}}}, {"name": "21375", "op": "Const", "attr": {"value": {"tensor": {"dtype": "DT_FLOAT", "tensorShape": {"dim": [{"size": "128"}]}}}, "dtype": {"type": "DT_FLOAT"}}}, {"name": "21377", "op": "Const", "attr": {"value": {"tensor": {"dtype": "DT_FLOAT", "tensorShape": {"dim": [{"size": "1"}, {"size": "1"}, {"size": "128"}, {"size": "128"}]}}}, "dtype": {"type": "DT_FLOAT"}}}, {"name": "21379", "op": "Const", "attr": {"value": {"tensor": {"dtype": "DT_FLOAT", "tensorShape": {"dim": [{"size": "128"}]}}}, "dtype": {"type": "DT_FLOAT"}}}, {"name": "21381", "op": "Const", "attr": {"value": {"tensor": {"dtype": "DT_INT64", "tensorShape": {"dim": [{"size": "4"}]}}}, "dtype": {"type": "DT_INT64"}}}, {"name": "21383", "op": "Const", "attr": {"value": {"tensor": {"dtype": "DT_INT64", "tensorShape": {"dim": [{"size": "4"}]}}}, "dtype": {"type": "DT_INT64"}}}, {"name": "PartitionedCall/model_1/tf.strided_slice_5/ones_like", "op": "Const", "attr": {"dtype": {"type": "DT_INT64"}, "value": {"tensor": {"dtype": "DT_INT64", "tensorShape": {"dim": [{"size": "4"}]}}}}}, {"name": "21385", "op": "Const", "attr": {"dtype": {"type": "DT_FLOAT"}, "value": {"tensor": {"dtype": "DT_FLOAT", "tensorShape": {"dim": [{"size": "3"}, {"size": "3"}, {"size": "64"}, {"size": "64"}]}}}}}, {"name": "21387", "op": "Const", "attr": {"dtype": {"type": "DT_FLOAT"}, "value": {"tensor": {"dtype": "DT_FLOAT", "tensorShape": {"dim": [{"size": "64"}]}}}}}, {"name": "21389", "op": "Const", "attr": {"dtype": {"type": "DT_FLOAT"}, "value": {"tensor": {"dtype": "DT_FLOAT", "tensorShape": {"dim": [{"size": "3"}, {"size": "3"}, {"size": "64"}, {"size": "64"}]}}}}}, {"name": "21391", "op": "Const", "attr": {"dtype": {"type": "DT_FLOAT"}, "value": {"tensor": {"dtype": "DT_FLOAT", "tensorShape": {"dim": [{"size": "64"}]}}}}}, {"name": "21393", "op": "Const", "attr": {"dtype": {"type": "DT_FLOAT"}, "value": {"tensor": {"dtype": "DT_FLOAT", "tensorShape": {"dim": [{"size": "3"}, {"size": "3"}, {"size": "64"}, {"size": "64"}]}}}}}, {"name": "21395", "op": "Const", "attr": {"value": {"tensor": {"dtype": "DT_FLOAT", "tensorShape": {"dim": [{"size": "64"}]}}}, "dtype": {"type": "DT_FLOAT"}}}, {"name": "21397", "op": "Const", "attr": {"value": {"tensor": {"dtype": "DT_FLOAT", "tensorShape": {"dim": [{"size": "3"}, {"size": "3"}, {"size": "64"}, {"size": "64"}]}}}, "dtype": {"type": "DT_FLOAT"}}}, {"name": "21399", "op": "Const", "attr": {"value": {"tensor": {"dtype": "DT_FLOAT", "tensorShape": {"dim": [{"size": "64"}]}}}, "dtype": {"type": "DT_FLOAT"}}}, {"name": "PartitionedCall/model_1/tf.concat_2/concat/axis", "op": "Const", "attr": {"dtype": {"type": "DT_INT32"}, "value": {"tensor": {"dtype": "DT_INT32", "tensorShape": {}}}}}, {"name": "21405", "op": "Const", "attr": {"dtype": {"type": "DT_FLOAT"}, "value": {"tensor": {"dtype": "DT_FLOAT", "tensorShape": {"dim": [{"size": "1"}, {"size": "1"}, {"size": "256"}, {"size": "128"}]}}}}}, {"name": "21407", "op": "Const", "attr": {"dtype": {"type": "DT_FLOAT"}, "value": {"tensor": {"dtype": "DT_FLOAT", "tensorShape": {"dim": [{"size": "128"}]}}}}}, {"name": "21409", "op": "Const", "attr": {"dtype": {"type": "DT_INT32"}, "value": {"tensor": {"dtype": "DT_INT32", "tensorShape": {"dim": [{"size": "4"}, {"size": "2"}]}}}}}, {"name": "21411", "op": "Const", "attr": {"dtype": {"type": "DT_FLOAT"}, "value": {"tensor": {"dtype": "DT_FLOAT", "tensorShape": {"dim": [{"size": "3"}, {"size": "3"}, {"size": "128"}, {"size": "256"}]}}}}}, {"name": "21413", "op": "Const", "attr": {"value": {"tensor": {"dtype": "DT_FLOAT", "tensorShape": {"dim": [{"size": "256"}]}}}, "dtype": {"type": "DT_FLOAT"}}}, {"name": "21415", "op": "Const", "attr": {"dtype": {"type": "DT_FLOAT"}, "value": {"tensor": {"dtype": "DT_FLOAT", "tensorShape": {"dim": [{"size": "1"}, {"size": "1"}, {"size": "256"}, {"size": "256"}]}}}}}, {"name": "21417", "op": "Const", "attr": {"value": {"tensor": {"dtype": "DT_FLOAT", "tensorShape": {"dim": [{"size": "256"}]}}}, "dtype": {"type": "DT_FLOAT"}}}, {"name": "21419", "op": "Const", "attr": {"value": {"tensor": {"dtype": "DT_INT64", "tensorShape": {"dim": [{"size": "4"}]}}}, "dtype": {"type": "DT_INT64"}}}, {"name": "21421", "op": "Const", "attr": {"dtype": {"type": "DT_INT64"}, "value": {"tensor": {"dtype": "DT_INT64", "tensorShape": {"dim": [{"size": "4"}]}}}}}, {"name": "PartitionedCall/model_1/tf.strided_slice_7/ones_like", "op": "Const", "attr": {"dtype": {"type": "DT_INT64"}, "value": {"tensor": {"dtype": "DT_INT64", "tensorShape": {"dim": [{"size": "4"}]}}}}}, {"name": "21423", "op": "Const", "attr": {"dtype": {"type": "DT_FLOAT"}, "value": {"tensor": {"dtype": "DT_FLOAT", "tensorShape": {"dim": [{"size": "3"}, {"size": "3"}, {"size": "128"}, {"size": "128"}]}}}}}, {"name": "21425", "op": "Const", "attr": {"value": {"tensor": {"dtype": "DT_FLOAT", "tensorShape": {"dim": [{"size": "128"}]}}}, "dtype": {"type": "DT_FLOAT"}}}, {"name": "21427", "op": "Const", "attr": {"value": {"tensor": {"dtype": "DT_FLOAT", "tensorShape": {"dim": [{"size": "3"}, {"size": "3"}, {"size": "128"}, {"size": "128"}]}}}, "dtype": {"type": "DT_FLOAT"}}}, {"name": "21429", "op": "Const", "attr": {"dtype": {"type": "DT_FLOAT"}, "value": {"tensor": {"dtype": "DT_FLOAT", "tensorShape": {"dim": [{"size": "128"}]}}}}}, {"name": "PartitionedCall/model_1/tf.concat_3/concat/axis", "op": "Const", "attr": {"value": {"tensor": {"dtype": "DT_INT32", "tensorShape": {}}}, "dtype": {"type": "DT_INT32"}}}, {"name": "21435", "op": "Const", "attr": {"value": {"tensor": {"dtype": "DT_FLOAT", "tensorShape": {"dim": [{"size": "1"}, {"size": "1"}, {"size": "384"}, {"size": "256"}]}}}, "dtype": {"type": "DT_FLOAT"}}}, {"name": "21437", "op": "Const", "attr": {"dtype": {"type": "DT_FLOAT"}, "value": {"tensor": {"dtype": "DT_FLOAT", "tensorShape": {"dim": [{"size": "256"}]}}}}}, {"name": "21439", "op": "Const", "attr": {"dtype": {"type": "DT_FLOAT"}, "value": {"tensor": {"dtype": "DT_FLOAT", "tensorShape": {"dim": [{"size": "1"}, {"size": "1"}, {"size": "256"}, {"size": "128"}]}}}}}, {"name": "21441", "op": "Const", "attr": {"value": {"tensor": {"dtype": "DT_FLOAT", "tensorShape": {"dim": [{"size": "128"}]}}}, "dtype": {"type": "DT_FLOAT"}}}, {"name": "PartitionedCall/model_1/tf.concat_4/concat/axis", "op": "Const", "attr": {"value": {"tensor": {"dtype": "DT_INT32", "tensorShape": {}}}, "dtype": {"type": "DT_INT32"}}}, {"name": "21443", "op": "Const", "attr": {"value": {"tensor": {"dtype": "DT_FLOAT", "tensorShape": {"dim": [{"size": "1"}, {"size": "1"}, {"size": "512"}, {"size": "256"}]}}}, "dtype": {"type": "DT_FLOAT"}}}, {"name": "21445", "op": "Const", "attr": {"value": {"tensor": {"dtype": "DT_FLOAT", "tensorShape": {"dim": [{"size": "256"}]}}}, "dtype": {"type": "DT_FLOAT"}}}, {"name": "PartitionedCall/model_1/tf.concat_12/concat/axis", "op": "Const", "attr": {"dtype": {"type": "DT_INT32"}, "value": {"tensor": {"dtype": "DT_INT32", "tensorShape": {}}}}}, {"name": "21531", "op": "Const", "attr": {"value": {"tensor": {"dtype": "DT_FLOAT", "tensorShape": {"dim": [{"size": "1"}, {"size": "1"}, {"size": "384"}, {"size": "256"}]}}}, "dtype": {"type": "DT_FLOAT"}}}, {"name": "21533", "op": "Const", "attr": {"dtype": {"type": "DT_FLOAT"}, "value": {"tensor": {"dtype": "DT_FLOAT", "tensorShape": {"dim": [{"size": "256"}]}}}}}, {"name": "21535", "op": "Const", "attr": {"dtype": {"type": "DT_INT64"}, "value": {"tensor": {"dtype": "DT_INT64", "tensorShape": {"dim": [{"size": "4"}]}}}}}, {"name": "21537", "op": "Const", "attr": {"value": {"tensor": {"dtype": "DT_INT64", "tensorShape": {"dim": [{"size": "4"}]}}}, "dtype": {"type": "DT_INT64"}}}, {"name": "PartitionedCall/model_1/tf.strided_slice_15/ones_like", "op": "Const", "attr": {"value": {"tensor": {"dtype": "DT_INT64", "tensorShape": {"dim": [{"size": "4"}]}}}, "dtype": {"type": "DT_INT64"}}}, {"name": "21539", "op": "Const", "attr": {"dtype": {"type": "DT_FLOAT"}, "value": {"tensor": {"dtype": "DT_FLOAT", "tensorShape": {"dim": [{"size": "3"}, {"size": "3"}, {"size": "128"}, {"size": "128"}]}}}}}, {"name": "21541", "op": "Const", "attr": {"dtype": {"type": "DT_FLOAT"}, "value": {"tensor": {"dtype": "DT_FLOAT", "tensorShape": {"dim": [{"size": "128"}]}}}}}, {"name": "21543", "op": "Const", "attr": {"value": {"tensor": {"dtype": "DT_FLOAT", "tensorShape": {"dim": [{"size": "3"}, {"size": "3"}, {"size": "128"}, {"size": "128"}]}}}, "dtype": {"type": "DT_FLOAT"}}}, {"name": "21545", "op": "Const", "attr": {"dtype": {"type": "DT_FLOAT"}, "value": {"tensor": {"dtype": "DT_FLOAT", "tensorShape": {"dim": [{"size": "128"}]}}}}}, {"name": "PartitionedCall/model_1/tf.concat_14/concat/axis", "op": "Const", "attr": {"dtype": {"type": "DT_INT32"}, "value": {"tensor": {"dtype": "DT_INT32", "tensorShape": {}}}}}, {"name": "21551", "op": "Const", "attr": {"value": {"tensor": {"dtype": "DT_FLOAT", "tensorShape": {"dim": [{"size": "1"}, {"size": "1"}, {"size": "384"}, {"size": "256"}]}}}, "dtype": {"type": "DT_FLOAT"}}}, {"name": "21553", "op": "Const", "attr": {"value": {"tensor": {"dtype": "DT_FLOAT", "tensorShape": {"dim": [{"size": "256"}]}}}, "dtype": {"type": "DT_FLOAT"}}}, {"name": "21555", "op": "Const", "attr": {"dtype": {"type": "DT_FLOAT"}, "value": {"tensor": {"dtype": "DT_FLOAT", "tensorShape": {"dim": [{"size": "3"}, {"size": "3"}, {"size": "256"}, {"size": "64"}]}}}}}, {"name": "21559", "op": "Const", "attr": {"value": {"tensor": {"dtype": "DT_FLOAT", "tensorShape": {"dim": [{"size": "64"}]}}}, "dtype": {"type": "DT_FLOAT"}}}, {"name": "21579", "op": "Const", "attr": {"dtype": {"type": "DT_FLOAT"}, "value": {"tensor": {"dtype": "DT_FLOAT", "tensorShape": {"dim": [{"size": "3"}, {"size": "3"}, {"size": "64"}, {"size": "64"}]}}}}}, {"name": "21583", "op": "Const", "attr": {"value": {"tensor": {"dtype": "DT_FLOAT", "tensorShape": {"dim": [{"size": "64"}]}}}, "dtype": {"type": "DT_FLOAT"}}}, {"name": "21603", "op": "Const", "attr": {"dtype": {"type": "DT_FLOAT"}, "value": {"tensor": {"dtype": "DT_FLOAT", "tensorShape": {"dim": [{"size": "1"}, {"size": "1"}, {"size": "64"}, {"size": "20"}]}}}}}, {"name": "21607", "op": "Const", "attr": {"value": {"tensor": {"dtype": "DT_FLOAT", "tensorShape": {"dim": [{"size": "20"}]}}}, "dtype": {"type": "DT_FLOAT"}}}, {"name": "PartitionedCall/model_1/tf.concat_592/concat/axis", "op": "Const", "attr": {"value": {"tensor": {"dtype": "DT_INT32", "tensorShape": {}}}, "dtype": {"type": "DT_INT32"}}}, {"name": "PartitionedCall/model_1/tf.compat.v1.transpose_1156/transpose/perm", "op": "Const", "attr": {"value": {"tensor": {"dtype": "DT_INT32", "tensorShape": {"dim": [{"size": "4"}]}}}, "dtype": {"type": "DT_INT32"}}}, {"name": "PartitionedCall/model_1/tf.reshape_2/Reshape/shape", "op": "Const", "attr": {"dtype": {"type": "DT_INT32"}, "value": {"tensor": {"dtype": "DT_INT32", "tensorShape": {"dim": [{"size": "3"}]}}}}}, {"name": "PartitionedCall/model_1/tf.concat_593/concat/axis", "op": "Const", "attr": {"dtype": {"type": "DT_INT32"}, "value": {"tensor": {"dtype": "DT_INT32", "tensorShape": {}}}}}, {"name": "21647", "op": "Const", "attr": {"value": {"tensor": {"dtype": "DT_INT64", "tensorShape": {"dim": [{"size": "3"}]}}}, "dtype": {"type": "DT_INT64"}}}, {"name": "21649", "op": "Const", "attr": {"value": {"tensor": {"dtype": "DT_INT64", "tensorShape": {"dim": [{"size": "3"}]}}}, "dtype": {"type": "DT_INT64"}}}, {"name": "PartitionedCall/model_1/tf.strided_slice_17/StridedSlice/strides", "op": "Const", "attr": {"dtype": {"type": "DT_INT64"}, "value": {"tensor": {"dtype": "DT_INT64", "tensorShape": {"dim": [{"size": "3"}]}}}}}, {"name": "PartitionedCall/model_1/output0/concat/axis", "op": "Const", "attr": {"value": {"tensor": {"dtype": "DT_INT32", "tensorShape": {}}}, "dtype": {"type": "DT_INT32"}}}, {"name": "x", "op": "Placeholder", "attr": {"dtype": {"type": "DT_FLOAT"}, "shape": {"shape": {"dim": [{"size": "1"}, {"size": "640"}, {"size": "640"}, {"size": "3"}]}}}}, {"name": "PartitionedCall/model_1/tf.compat.v1.pad/Pad", "op": "Pad", "input": ["x", "21297"], "attr": {"T": {"type": "DT_FLOAT"}, "Tpaddings": {"type": "DT_INT32"}}}, {"name": "PartitionedCall/model_1/tf.nn.convolution/convolution", "op": "Conv2D", "input": ["PartitionedCall/model_1/tf.compat.v1.pad/Pad", "21299"], "device": "/device:CPU:0", "attr": {"explicit_paddings": {"list": {}}, "strides": {"list": {"i": ["1", "2", "2", "1"]}}, "data_format": {"s": "TkhXQw=="}, "padding": {"s": "VkFMSUQ="}, "use_cudnn_on_gpu": {"b": true}, "T": {"type": "DT_FLOAT"}, "dilations": {"list": {"i": ["1", "1", "1", "1"]}}}}, {"name": "PartitionedCall/model_1/tf.math.add/Add", "op": "AddV2", "input": ["PartitionedCall/model_1/tf.nn.convolution/convolution", "21301"], "attr": {"T": {"type": "DT_FLOAT"}}}, {"name": "PartitionedCall/model_1/tf.math.sigmoid/Sigmoid", "op": "Sigmoid", "input": ["PartitionedCall/model_1/tf.math.add/Add"], "attr": {"T": {"type": "DT_FLOAT"}}}, {"name": "PartitionedCall/model_1/tf.math.multiply_2/Mul", "op": "Mul", "input": ["PartitionedCall/model_1/tf.math.add/Add", "PartitionedCall/model_1/tf.math.sigmoid/Sigmoid"], "attr": {"T": {"type": "DT_FLOAT"}}}, {"name": "PartitionedCall/model_1/tf.compat.v1.pad_1/Pad", "op": "Pad", "input": ["PartitionedCall/model_1/tf.math.multiply_2/Mul", "21303"], "attr": {"Tpaddings": {"type": "DT_INT32"}, "T": {"type": "DT_FLOAT"}}}, {"name": "PartitionedCall/model_1/tf.nn.convolution_1/convolution", "op": "Conv2D", "input": ["PartitionedCall/model_1/tf.compat.v1.pad_1/Pad", "21305"], "device": "/device:CPU:0", "attr": {"use_cudnn_on_gpu": {"b": true}, "padding": {"s": "VkFMSUQ="}, "data_format": {"s": "TkhXQw=="}, "explicit_paddings": {"list": {}}, "T": {"type": "DT_FLOAT"}, "dilations": {"list": {"i": ["1", "1", "1", "1"]}}, "strides": {"list": {"i": ["1", "2", "2", "1"]}}}}, {"name": "PartitionedCall/model_1/tf.math.add_1/Add", "op": "AddV2", "input": ["PartitionedCall/model_1/tf.nn.convolution_1/convolution", "21307"], "attr": {"T": {"type": "DT_FLOAT"}}}, {"name": "PartitionedCall/model_1/tf.math.sigmoid_1/Sigmoid", "op": "Sigmoid", "input": ["PartitionedCall/model_1/tf.math.add_1/Add"], "attr": {"T": {"type": "DT_FLOAT"}}}, {"name": "PartitionedCall/model_1/tf.math.multiply_5/Mul", "op": "Mul", "input": ["PartitionedCall/model_1/tf.math.add_1/Add", "PartitionedCall/model_1/tf.math.sigmoid_1/Sigmoid"], "attr": {"T": {"type": "DT_FLOAT"}}}, {"name": "PartitionedCall/model_1/tf.nn.convolution_2/convolution", "op": "Conv2D", "input": ["PartitionedCall/model_1/tf.math.multiply_5/Mul", "21309"], "device": "/device:CPU:0", "attr": {"dilations": {"list": {"i": ["1", "1", "1", "1"]}}, "padding": {"s": "U0FNRQ=="}, "T": {"type": "DT_FLOAT"}, "explicit_paddings": {"list": {}}, "data_format": {"s": "TkhXQw=="}, "strides": {"list": {"i": ["1", "1", "1", "1"]}}, "use_cudnn_on_gpu": {"b": true}}}, {"name": "PartitionedCall/model_1/tf.math.add_2/Add", "op": "AddV2", "input": ["PartitionedCall/model_1/tf.nn.convolution_2/convolution", "21311"], "attr": {"T": {"type": "DT_FLOAT"}}}, {"name": "PartitionedCall/model_1/tf.math.sigmoid_2/Sigmoid", "op": "Sigmoid", "input": ["PartitionedCall/model_1/tf.math.add_2/Add"], "attr": {"T": {"type": "DT_FLOAT"}}}, {"name": "PartitionedCall/model_1/tf.math.multiply_8/Mul", "op": "Mul", "input": ["PartitionedCall/model_1/tf.math.add_2/Add", "PartitionedCall/model_1/tf.math.sigmoid_2/Sigmoid"], "attr": {"T": {"type": "DT_FLOAT"}}}, {"name": "PartitionedCall/model_1/tf.strided_slice/StridedSlice", "op": "StridedSlice", "input": ["PartitionedCall/model_1/tf.math.multiply_8/Mul", "21325", "21327", "PartitionedCall/model_1/tf.strided_slice/ones_like"], "attr": {"T": {"type": "DT_FLOAT"}, "Index": {"type": "DT_INT64"}, "end_mask": {"i": "7"}, "begin_mask": {"i": "15"}, "ellipsis_mask": {"i": "0"}, "new_axis_mask": {"i": "0"}, "shrink_axis_mask": {"i": "0"}}}, {"name": "PartitionedCall/model_1/tf.strided_slice_1/StridedSlice", "op": "StridedSlice", "input": ["PartitionedCall/model_1/tf.math.multiply_8/Mul", "21313", "21315", "PartitionedCall/model_1/tf.strided_slice_1/ones_like"], "attr": {"shrink_axis_mask": {"i": "0"}, "Index": {"type": "DT_INT64"}, "T": {"type": "DT_FLOAT"}, "end_mask": {"i": "7"}, "begin_mask": {"i": "7"}, "new_axis_mask": {"i": "0"}, "ellipsis_mask": {"i": "0"}}}, {"name": "PartitionedCall/model_1/tf.nn.convolution_3/convolution", "op": "Conv2D", "input": ["PartitionedCall/model_1/tf.strided_slice_1/StridedSlice", "21317"], "device": "/device:CPU:0", "attr": {"dilations": {"list": {"i": ["1", "1", "1", "1"]}}, "strides": {"list": {"i": ["1", "1", "1", "1"]}}, "padding": {"s": "U0FNRQ=="}, "use_cudnn_on_gpu": {"b": true}, "T": {"type": "DT_FLOAT"}, "data_format": {"s": "TkhXQw=="}, "explicit_paddings": {"list": {}}}}, {"name": "PartitionedCall/model_1/tf.math.add_3/Add", "op": "AddV2", "input": ["PartitionedCall/model_1/tf.nn.convolution_3/convolution", "21319"], "attr": {"T": {"type": "DT_FLOAT"}}}, {"name": "PartitionedCall/model_1/tf.math.sigmoid_3/Sigmoid", "op": "Sigmoid", "input": ["PartitionedCall/model_1/tf.math.add_3/Add"], "attr": {"T": {"type": "DT_FLOAT"}}}, {"name": "PartitionedCall/model_1/tf.math.multiply_11/Mul", "op": "Mul", "input": ["PartitionedCall/model_1/tf.math.add_3/Add", "PartitionedCall/model_1/tf.math.sigmoid_3/Sigmoid"], "attr": {"T": {"type": "DT_FLOAT"}}}, {"name": "PartitionedCall/model_1/tf.nn.convolution_4/convolution", "op": "Conv2D", "input": ["PartitionedCall/model_1/tf.math.multiply_11/Mul", "21321"], "device": "/device:CPU:0", "attr": {"data_format": {"s": "TkhXQw=="}, "T": {"type": "DT_FLOAT"}, "explicit_paddings": {"list": {}}, "dilations": {"list": {"i": ["1", "1", "1", "1"]}}, "strides": {"list": {"i": ["1", "1", "1", "1"]}}, "use_cudnn_on_gpu": {"b": true}, "padding": {"s": "U0FNRQ=="}}}, {"name": "PartitionedCall/model_1/tf.math.add_4/Add", "op": "AddV2", "input": ["PartitionedCall/model_1/tf.nn.convolution_4/convolution", "21323"], "attr": {"T": {"type": "DT_FLOAT"}}}, {"name": "PartitionedCall/model_1/tf.math.sigmoid_4/Sigmoid", "op": "Sigmoid", "input": ["PartitionedCall/model_1/tf.math.add_4/Add"], "attr": {"T": {"type": "DT_FLOAT"}}}, {"name": "PartitionedCall/model_1/tf.math.multiply_14/Mul", "op": "Mul", "input": ["PartitionedCall/model_1/tf.math.add_4/Add", "PartitionedCall/model_1/tf.math.sigmoid_4/Sigmoid"], "attr": {"T": {"type": "DT_FLOAT"}}}, {"name": "PartitionedCall/model_1/tf.math.add_5/Add", "op": "AddV2", "input": ["PartitionedCall/model_1/tf.strided_slice_1/StridedSlice", "PartitionedCall/model_1/tf.math.multiply_14/Mul"], "attr": {"T": {"type": "DT_FLOAT"}}}, {"name": "PartitionedCall/model_1/tf.concat/concat", "op": "ConcatV2", "input": ["PartitionedCall/model_1/tf.strided_slice/StridedSlice", "PartitionedCall/model_1/tf.strided_slice_1/StridedSlice", "PartitionedCall/model_1/tf.math.add_5/Add", "PartitionedCall/model_1/tf.concat/concat/axis"], "attr": {"N": {"i": "3"}, "T": {"type": "DT_FLOAT"}, "Tidx": {"type": "DT_INT32"}}}, {"name": "PartitionedCall/model_1/tf.nn.convolution_5/convolution", "op": "Conv2D", "input": ["PartitionedCall/model_1/tf.concat/concat", "21329"], "device": "/device:CPU:0", "attr": {"use_cudnn_on_gpu": {"b": true}, "T": {"type": "DT_FLOAT"}, "strides": {"list": {"i": ["1", "1", "1", "1"]}}, "explicit_paddings": {"list": {}}, "dilations": {"list": {"i": ["1", "1", "1", "1"]}}, "data_format": {"s": "TkhXQw=="}, "padding": {"s": "U0FNRQ=="}}}, {"name": "PartitionedCall/model_1/tf.math.add_6/Add", "op": "AddV2", "input": ["PartitionedCall/model_1/tf.nn.convolution_5/convolution", "21331"], "attr": {"T": {"type": "DT_FLOAT"}}}, {"name": "PartitionedCall/model_1/tf.math.sigmoid_5/Sigmoid", "op": "Sigmoid", "input": ["PartitionedCall/model_1/tf.math.add_6/Add"], "attr": {"T": {"type": "DT_FLOAT"}}}, {"name": "PartitionedCall/model_1/tf.math.multiply_19/Mul", "op": "Mul", "input": ["PartitionedCall/model_1/tf.math.add_6/Add", "PartitionedCall/model_1/tf.math.sigmoid_5/Sigmoid"], "attr": {"T": {"type": "DT_FLOAT"}}}, {"name": "PartitionedCall/model_1/tf.compat.v1.pad_2/Pad", "op": "Pad", "input": ["PartitionedCall/model_1/tf.math.multiply_19/Mul", "21333"], "attr": {"T": {"type": "DT_FLOAT"}, "Tpaddings": {"type": "DT_INT32"}}}, {"name": "PartitionedCall/model_1/tf.nn.convolution_6/convolution", "op": "Conv2D", "input": ["PartitionedCall/model_1/tf.compat.v1.pad_2/Pad", "21335"], "device": "/device:CPU:0", "attr": {"explicit_paddings": {"list": {}}, "dilations": {"list": {"i": ["1", "1", "1", "1"]}}, "data_format": {"s": "TkhXQw=="}, "use_cudnn_on_gpu": {"b": true}, "strides": {"list": {"i": ["1", "2", "2", "1"]}}, "padding": {"s": "VkFMSUQ="}, "T": {"type": "DT_FLOAT"}}}, {"name": "PartitionedCall/model_1/tf.math.add_7/Add", "op": "AddV2", "input": ["PartitionedCall/model_1/tf.nn.convolution_6/convolution", "21337"], "attr": {"T": {"type": "DT_FLOAT"}}}, {"name": "PartitionedCall/model_1/tf.math.sigmoid_6/Sigmoid", "op": "Sigmoid", "input": ["PartitionedCall/model_1/tf.math.add_7/Add"], "attr": {"T": {"type": "DT_FLOAT"}}}, {"name": "PartitionedCall/model_1/tf.math.multiply_22/Mul", "op": "Mul", "input": ["PartitionedCall/model_1/tf.math.add_7/Add", "PartitionedCall/model_1/tf.math.sigmoid_6/Sigmoid"], "attr": {"T": {"type": "DT_FLOAT"}}}, {"name": "PartitionedCall/model_1/tf.nn.convolution_7/convolution", "op": "Conv2D", "input": ["PartitionedCall/model_1/tf.math.multiply_22/Mul", "21339"], "device": "/device:CPU:0", "attr": {"padding": {"s": "U0FNRQ=="}, "T": {"type": "DT_FLOAT"}, "explicit_paddings": {"list": {}}, "strides": {"list": {"i": ["1", "1", "1", "1"]}}, "data_format": {"s": "TkhXQw=="}, "dilations": {"list": {"i": ["1", "1", "1", "1"]}}, "use_cudnn_on_gpu": {"b": true}}}, {"name": "PartitionedCall/model_1/tf.math.add_8/Add", "op": "AddV2", "input": ["PartitionedCall/model_1/tf.nn.convolution_7/convolution", "21341"], "attr": {"T": {"type": "DT_FLOAT"}}}, {"name": "PartitionedCall/model_1/tf.math.sigmoid_7/Sigmoid", "op": "Sigmoid", "input": ["PartitionedCall/model_1/tf.math.add_8/Add"], "attr": {"T": {"type": "DT_FLOAT"}}}, {"name": "PartitionedCall/model_1/tf.math.multiply_25/Mul", "op": "Mul", "input": ["PartitionedCall/model_1/tf.math.add_8/Add", "PartitionedCall/model_1/tf.math.sigmoid_7/Sigmoid"], "attr": {"T": {"type": "DT_FLOAT"}}}, {"name": "PartitionedCall/model_1/tf.strided_slice_2/StridedSlice", "op": "StridedSlice", "input": ["PartitionedCall/model_1/tf.math.multiply_25/Mul", "21363", "21365", "PartitionedCall/model_1/tf.strided_slice_2/ones_like"], "attr": {"T": {"type": "DT_FLOAT"}, "Index": {"type": "DT_INT64"}, "shrink_axis_mask": {"i": "0"}, "new_axis_mask": {"i": "0"}, "end_mask": {"i": "7"}, "ellipsis_mask": {"i": "0"}, "begin_mask": {"i": "15"}}}, {"name": "PartitionedCall/model_1/tf.strided_slice_3/StridedSlice", "op": "StridedSlice", "input": ["PartitionedCall/model_1/tf.math.multiply_25/Mul", "21343", "21345", "PartitionedCall/model_1/tf.strided_slice_3/ones_like"], "attr": {"new_axis_mask": {"i": "0"}, "begin_mask": {"i": "7"}, "end_mask": {"i": "7"}, "ellipsis_mask": {"i": "0"}, "shrink_axis_mask": {"i": "0"}, "T": {"type": "DT_FLOAT"}, "Index": {"type": "DT_INT64"}}}, {"name": "PartitionedCall/model_1/tf.nn.convolution_8/convolution", "op": "Conv2D", "input": ["PartitionedCall/model_1/tf.strided_slice_3/StridedSlice", "21347"], "device": "/device:CPU:0", "attr": {"T": {"type": "DT_FLOAT"}, "strides": {"list": {"i": ["1", "1", "1", "1"]}}, "explicit_paddings": {"list": {}}, "use_cudnn_on_gpu": {"b": true}, "dilations": {"list": {"i": ["1", "1", "1", "1"]}}, "data_format": {"s": "TkhXQw=="}, "padding": {"s": "U0FNRQ=="}}}, {"name": "PartitionedCall/model_1/tf.math.add_9/Add", "op": "AddV2", "input": ["PartitionedCall/model_1/tf.nn.convolution_8/convolution", "21349"], "attr": {"T": {"type": "DT_FLOAT"}}}, {"name": "PartitionedCall/model_1/tf.math.sigmoid_8/Sigmoid", "op": "Sigmoid", "input": ["PartitionedCall/model_1/tf.math.add_9/Add"], "attr": {"T": {"type": "DT_FLOAT"}}}, {"name": "PartitionedCall/model_1/tf.math.multiply_28/Mul", "op": "Mul", "input": ["PartitionedCall/model_1/tf.math.add_9/Add", "PartitionedCall/model_1/tf.math.sigmoid_8/Sigmoid"], "attr": {"T": {"type": "DT_FLOAT"}}}, {"name": "PartitionedCall/model_1/tf.nn.convolution_9/convolution", "op": "Conv2D", "input": ["PartitionedCall/model_1/tf.math.multiply_28/Mul", "21351"], "device": "/device:CPU:0", "attr": {"dilations": {"list": {"i": ["1", "1", "1", "1"]}}, "data_format": {"s": "TkhXQw=="}, "padding": {"s": "U0FNRQ=="}, "strides": {"list": {"i": ["1", "1", "1", "1"]}}, "explicit_paddings": {"list": {}}, "T": {"type": "DT_FLOAT"}, "use_cudnn_on_gpu": {"b": true}}}, {"name": "PartitionedCall/model_1/tf.math.add_10/Add", "op": "AddV2", "input": ["PartitionedCall/model_1/tf.nn.convolution_9/convolution", "21353"], "attr": {"T": {"type": "DT_FLOAT"}}}, {"name": "PartitionedCall/model_1/tf.math.sigmoid_9/Sigmoid", "op": "Sigmoid", "input": ["PartitionedCall/model_1/tf.math.add_10/Add"], "attr": {"T": {"type": "DT_FLOAT"}}}, {"name": "PartitionedCall/model_1/tf.math.multiply_31/Mul", "op": "Mul", "input": ["PartitionedCall/model_1/tf.math.add_10/Add", "PartitionedCall/model_1/tf.math.sigmoid_9/Sigmoid"], "attr": {"T": {"type": "DT_FLOAT"}}}, {"name": "PartitionedCall/model_1/tf.math.add_11/Add", "op": "AddV2", "input": ["PartitionedCall/model_1/tf.strided_slice_3/StridedSlice", "PartitionedCall/model_1/tf.math.multiply_31/Mul"], "attr": {"T": {"type": "DT_FLOAT"}}}, {"name": "PartitionedCall/model_1/tf.nn.convolution_10/convolution", "op": "Conv2D", "input": ["PartitionedCall/model_1/tf.math.add_11/Add", "21355"], "device": "/device:CPU:0", "attr": {"data_format": {"s": "TkhXQw=="}, "padding": {"s": "U0FNRQ=="}, "dilations": {"list": {"i": ["1", "1", "1", "1"]}}, "explicit_paddings": {"list": {}}, "use_cudnn_on_gpu": {"b": true}, "T": {"type": "DT_FLOAT"}, "strides": {"list": {"i": ["1", "1", "1", "1"]}}}}, {"name": "PartitionedCall/model_1/tf.math.add_12/Add", "op": "AddV2", "input": ["PartitionedCall/model_1/tf.nn.convolution_10/convolution", "21357"], "attr": {"T": {"type": "DT_FLOAT"}}}, {"name": "PartitionedCall/model_1/tf.math.sigmoid_10/Sigmoid", "op": "Sigmoid", "input": ["PartitionedCall/model_1/tf.math.add_12/Add"], "attr": {"T": {"type": "DT_FLOAT"}}}, {"name": "PartitionedCall/model_1/tf.math.multiply_36/Mul", "op": "Mul", "input": ["PartitionedCall/model_1/tf.math.add_12/Add", "PartitionedCall/model_1/tf.math.sigmoid_10/Sigmoid"], "attr": {"T": {"type": "DT_FLOAT"}}}, {"name": "PartitionedCall/model_1/tf.nn.convolution_11/convolution", "op": "Conv2D", "input": ["PartitionedCall/model_1/tf.math.multiply_36/Mul", "21359"], "device": "/device:CPU:0", "attr": {"use_cudnn_on_gpu": {"b": true}, "T": {"type": "DT_FLOAT"}, "strides": {"list": {"i": ["1", "1", "1", "1"]}}, "dilations": {"list": {"i": ["1", "1", "1", "1"]}}, "data_format": {"s": "TkhXQw=="}, "padding": {"s": "U0FNRQ=="}, "explicit_paddings": {"list": {}}}}, {"name": "PartitionedCall/model_1/tf.math.add_13/Add", "op": "AddV2", "input": ["PartitionedCall/model_1/tf.nn.convolution_11/convolution", "21361"], "attr": {"T": {"type": "DT_FLOAT"}}}, {"name": "PartitionedCall/model_1/tf.math.sigmoid_11/Sigmoid", "op": "Sigmoid", "input": ["PartitionedCall/model_1/tf.math.add_13/Add"], "attr": {"T": {"type": "DT_FLOAT"}}}, {"name": "PartitionedCall/model_1/tf.math.multiply_39/Mul", "op": "Mul", "input": ["PartitionedCall/model_1/tf.math.add_13/Add", "PartitionedCall/model_1/tf.math.sigmoid_11/Sigmoid"], "attr": {"T": {"type": "DT_FLOAT"}}}, {"name": "PartitionedCall/model_1/tf.math.add_14/Add", "op": "AddV2", "input": ["PartitionedCall/model_1/tf.math.add_11/Add", "PartitionedCall/model_1/tf.math.multiply_39/Mul"], "attr": {"T": {"type": "DT_FLOAT"}}}, {"name": "PartitionedCall/model_1/tf.concat_1/concat", "op": "ConcatV2", "input": ["PartitionedCall/model_1/tf.strided_slice_2/StridedSlice", "PartitionedCall/model_1/tf.strided_slice_3/StridedSlice", "PartitionedCall/model_1/tf.math.add_11/Add", "PartitionedCall/model_1/tf.math.add_14/Add", "PartitionedCall/model_1/tf.concat_1/concat/axis"], "attr": {"N": {"i": "4"}, "Tidx": {"type": "DT_INT32"}, "T": {"type": "DT_FLOAT"}}}, {"name": "PartitionedCall/model_1/tf.nn.convolution_12/convolution", "op": "Conv2D", "input": ["PartitionedCall/model_1/tf.concat_1/concat", "21367"], "device": "/device:CPU:0", "attr": {"padding": {"s": "U0FNRQ=="}, "explicit_paddings": {"list": {}}, "data_format": {"s": "TkhXQw=="}, "strides": {"list": {"i": ["1", "1", "1", "1"]}}, "use_cudnn_on_gpu": {"b": true}, "dilations": {"list": {"i": ["1", "1", "1", "1"]}}, "T": {"type": "DT_FLOAT"}}}, {"name": "PartitionedCall/model_1/tf.math.add_15/Add", "op": "AddV2", "input": ["PartitionedCall/model_1/tf.nn.convolution_12/convolution", "21369"], "attr": {"T": {"type": "DT_FLOAT"}}}, {"name": "PartitionedCall/model_1/tf.math.sigmoid_12/Sigmoid", "op": "Sigmoid", "input": ["PartitionedCall/model_1/tf.math.add_15/Add"], "attr": {"T": {"type": "DT_FLOAT"}}}, {"name": "PartitionedCall/model_1/tf.math.multiply_44/Mul", "op": "Mul", "input": ["PartitionedCall/model_1/tf.math.add_15/Add", "PartitionedCall/model_1/tf.math.sigmoid_12/Sigmoid"], "attr": {"T": {"type": "DT_FLOAT"}}}, {"name": "PartitionedCall/model_1/tf.compat.v1.pad_3/Pad", "op": "Pad", "input": ["PartitionedCall/model_1/tf.math.multiply_44/Mul", "21371"], "attr": {"Tpaddings": {"type": "DT_INT32"}, "T": {"type": "DT_FLOAT"}}}, {"name": "PartitionedCall/model_1/tf.nn.convolution_13/convolution", "op": "Conv2D", "input": ["PartitionedCall/model_1/tf.compat.v1.pad_3/Pad", "21373"], "device": "/device:CPU:0", "attr": {"strides": {"list": {"i": ["1", "2", "2", "1"]}}, "padding": {"s": "VkFMSUQ="}, "T": {"type": "DT_FLOAT"}, "dilations": {"list": {"i": ["1", "1", "1", "1"]}}, "explicit_paddings": {"list": {}}, "data_format": {"s": "TkhXQw=="}, "use_cudnn_on_gpu": {"b": true}}}, {"name": "PartitionedCall/model_1/tf.math.add_16/Add", "op": "AddV2", "input": ["PartitionedCall/model_1/tf.nn.convolution_13/convolution", "21375"], "attr": {"T": {"type": "DT_FLOAT"}}}, {"name": "PartitionedCall/model_1/tf.math.sigmoid_13/Sigmoid", "op": "Sigmoid", "input": ["PartitionedCall/model_1/tf.math.add_16/Add"], "attr": {"T": {"type": "DT_FLOAT"}}}, {"name": "PartitionedCall/model_1/tf.math.multiply_47/Mul", "op": "Mul", "input": ["PartitionedCall/model_1/tf.math.add_16/Add", "PartitionedCall/model_1/tf.math.sigmoid_13/Sigmoid"], "attr": {"T": {"type": "DT_FLOAT"}}}, {"name": "PartitionedCall/model_1/tf.nn.convolution_14/convolution", "op": "Conv2D", "input": ["PartitionedCall/model_1/tf.math.multiply_47/Mul", "21377"], "device": "/device:CPU:0", "attr": {"padding": {"s": "U0FNRQ=="}, "T": {"type": "DT_FLOAT"}, "data_format": {"s": "TkhXQw=="}, "dilations": {"list": {"i": ["1", "1", "1", "1"]}}, "use_cudnn_on_gpu": {"b": true}, "strides": {"list": {"i": ["1", "1", "1", "1"]}}, "explicit_paddings": {"list": {}}}}, {"name": "PartitionedCall/model_1/tf.math.add_17/Add", "op": "AddV2", "input": ["PartitionedCall/model_1/tf.nn.convolution_14/convolution", "21379"], "attr": {"T": {"type": "DT_FLOAT"}}}, {"name": "PartitionedCall/model_1/tf.math.sigmoid_14/Sigmoid", "op": "Sigmoid", "input": ["PartitionedCall/model_1/tf.math.add_17/Add"], "attr": {"T": {"type": "DT_FLOAT"}}}, {"name": "PartitionedCall/model_1/tf.math.multiply_50/Mul", "op": "Mul", "input": ["PartitionedCall/model_1/tf.math.add_17/Add", "PartitionedCall/model_1/tf.math.sigmoid_14/Sigmoid"], "attr": {"T": {"type": "DT_FLOAT"}}}, {"name": "PartitionedCall/model_1/tf.strided_slice_4/StridedSlice", "op": "StridedSlice", "input": ["PartitionedCall/model_1/tf.math.multiply_50/Mul", "21401", "21403", "PartitionedCall/model_1/tf.strided_slice_4/ones_like"], "attr": {"begin_mask": {"i": "15"}, "T": {"type": "DT_FLOAT"}, "end_mask": {"i": "7"}, "shrink_axis_mask": {"i": "0"}, "new_axis_mask": {"i": "0"}, "Index": {"type": "DT_INT64"}, "ellipsis_mask": {"i": "0"}}}, {"name": "PartitionedCall/model_1/tf.strided_slice_5/StridedSlice", "op": "StridedSlice", "input": ["PartitionedCall/model_1/tf.math.multiply_50/Mul", "21381", "21383", "PartitionedCall/model_1/tf.strided_slice_5/ones_like"], "attr": {"new_axis_mask": {"i": "0"}, "end_mask": {"i": "7"}, "ellipsis_mask": {"i": "0"}, "shrink_axis_mask": {"i": "0"}, "begin_mask": {"i": "7"}, "Index": {"type": "DT_INT64"}, "T": {"type": "DT_FLOAT"}}}, {"name": "PartitionedCall/model_1/tf.nn.convolution_15/convolution", "op": "Conv2D", "input": ["PartitionedCall/model_1/tf.strided_slice_5/StridedSlice", "21385"], "device": "/device:CPU:0", "attr": {"strides": {"list": {"i": ["1", "1", "1", "1"]}}, "T": {"type": "DT_FLOAT"}, "dilations": {"list": {"i": ["1", "1", "1", "1"]}}, "data_format": {"s": "TkhXQw=="}, "explicit_paddings": {"list": {}}, "use_cudnn_on_gpu": {"b": true}, "padding": {"s": "U0FNRQ=="}}}, {"name": "PartitionedCall/model_1/tf.math.add_18/Add", "op": "AddV2", "input": ["PartitionedCall/model_1/tf.nn.convolution_15/convolution", "21387"], "attr": {"T": {"type": "DT_FLOAT"}}}, {"name": "PartitionedCall/model_1/tf.math.sigmoid_15/Sigmoid", "op": "Sigmoid", "input": ["PartitionedCall/model_1/tf.math.add_18/Add"], "attr": {"T": {"type": "DT_FLOAT"}}}, {"name": "PartitionedCall/model_1/tf.math.multiply_53/Mul", "op": "Mul", "input": ["PartitionedCall/model_1/tf.math.add_18/Add", "PartitionedCall/model_1/tf.math.sigmoid_15/Sigmoid"], "attr": {"T": {"type": "DT_FLOAT"}}}, {"name": "PartitionedCall/model_1/tf.nn.convolution_16/convolution", "op": "Conv2D", "input": ["PartitionedCall/model_1/tf.math.multiply_53/Mul", "21389"], "device": "/device:CPU:0", "attr": {"dilations": {"list": {"i": ["1", "1", "1", "1"]}}, "data_format": {"s": "TkhXQw=="}, "T": {"type": "DT_FLOAT"}, "padding": {"s": "U0FNRQ=="}, "strides": {"list": {"i": ["1", "1", "1", "1"]}}, "use_cudnn_on_gpu": {"b": true}, "explicit_paddings": {"list": {}}}}, {"name": "PartitionedCall/model_1/tf.math.add_19/Add", "op": "AddV2", "input": ["PartitionedCall/model_1/tf.nn.convolution_16/convolution", "21391"], "attr": {"T": {"type": "DT_FLOAT"}}}, {"name": "PartitionedCall/model_1/tf.math.sigmoid_16/Sigmoid", "op": "Sigmoid", "input": ["PartitionedCall/model_1/tf.math.add_19/Add"], "attr": {"T": {"type": "DT_FLOAT"}}}, {"name": "PartitionedCall/model_1/tf.math.multiply_56/Mul", "op": "Mul", "input": ["PartitionedCall/model_1/tf.math.add_19/Add", "PartitionedCall/model_1/tf.math.sigmoid_16/Sigmoid"], "attr": {"T": {"type": "DT_FLOAT"}}}, {"name": "PartitionedCall/model_1/tf.math.add_20/Add", "op": "AddV2", "input": ["PartitionedCall/model_1/tf.strided_slice_5/StridedSlice", "PartitionedCall/model_1/tf.math.multiply_56/Mul"], "attr": {"T": {"type": "DT_FLOAT"}}}, {"name": "PartitionedCall/model_1/tf.nn.convolution_17/convolution", "op": "Conv2D", "input": ["PartitionedCall/model_1/tf.math.add_20/Add", "21393"], "device": "/device:CPU:0", "attr": {"strides": {"list": {"i": ["1", "1", "1", "1"]}}, "data_format": {"s": "TkhXQw=="}, "explicit_paddings": {"list": {}}, "padding": {"s": "U0FNRQ=="}, "T": {"type": "DT_FLOAT"}, "dilations": {"list": {"i": ["1", "1", "1", "1"]}}, "use_cudnn_on_gpu": {"b": true}}}, {"name": "PartitionedCall/model_1/tf.math.add_21/Add", "op": "AddV2", "input": ["PartitionedCall/model_1/tf.nn.convolution_17/convolution", "21395"], "attr": {"T": {"type": "DT_FLOAT"}}}, {"name": "PartitionedCall/model_1/tf.math.sigmoid_17/Sigmoid", "op": "Sigmoid", "input": ["PartitionedCall/model_1/tf.math.add_21/Add"], "attr": {"T": {"type": "DT_FLOAT"}}}, {"name": "PartitionedCall/model_1/tf.math.multiply_61/Mul", "op": "Mul", "input": ["PartitionedCall/model_1/tf.math.add_21/Add", "PartitionedCall/model_1/tf.math.sigmoid_17/Sigmoid"], "attr": {"T": {"type": "DT_FLOAT"}}}, {"name": "PartitionedCall/model_1/tf.nn.convolution_18/convolution", "op": "Conv2D", "input": ["PartitionedCall/model_1/tf.math.multiply_61/Mul", "21397"], "device": "/device:CPU:0", "attr": {"padding": {"s": "U0FNRQ=="}, "strides": {"list": {"i": ["1", "1", "1", "1"]}}, "T": {"type": "DT_FLOAT"}, "dilations": {"list": {"i": ["1", "1", "1", "1"]}}, "data_format": {"s": "TkhXQw=="}, "explicit_paddings": {"list": {}}, "use_cudnn_on_gpu": {"b": true}}}, {"name": "PartitionedCall/model_1/tf.math.add_22/Add", "op": "AddV2", "input": ["PartitionedCall/model_1/tf.nn.convolution_18/convolution", "21399"], "attr": {"T": {"type": "DT_FLOAT"}}}, {"name": "PartitionedCall/model_1/tf.math.sigmoid_18/Sigmoid", "op": "Sigmoid", "input": ["PartitionedCall/model_1/tf.math.add_22/Add"], "attr": {"T": {"type": "DT_FLOAT"}}}, {"name": "PartitionedCall/model_1/tf.math.multiply_64/Mul", "op": "Mul", "input": ["PartitionedCall/model_1/tf.math.add_22/Add", "PartitionedCall/model_1/tf.math.sigmoid_18/Sigmoid"], "attr": {"T": {"type": "DT_FLOAT"}}}, {"name": "PartitionedCall/model_1/tf.math.add_23/Add", "op": "AddV2", "input": ["PartitionedCall/model_1/tf.math.add_20/Add", "PartitionedCall/model_1/tf.math.multiply_64/Mul"], "attr": {"T": {"type": "DT_FLOAT"}}}, {"name": "PartitionedCall/model_1/tf.concat_2/concat", "op": "ConcatV2", "input": ["PartitionedCall/model_1/tf.strided_slice_4/StridedSlice", "PartitionedCall/model_1/tf.strided_slice_5/StridedSlice", "PartitionedCall/model_1/tf.math.add_20/Add", "PartitionedCall/model_1/tf.math.add_23/Add", "PartitionedCall/model_1/tf.concat_2/concat/axis"], "attr": {"T": {"type": "DT_FLOAT"}, "Tidx": {"type": "DT_INT32"}, "N": {"i": "4"}}}, {"name": "PartitionedCall/model_1/tf.nn.convolution_19/convolution", "op": "Conv2D", "input": ["PartitionedCall/model_1/tf.concat_2/concat", "21405"], "device": "/device:CPU:0", "attr": {"padding": {"s": "U0FNRQ=="}, "strides": {"list": {"i": ["1", "1", "1", "1"]}}, "use_cudnn_on_gpu": {"b": true}, "explicit_paddings": {"list": {}}, "T": {"type": "DT_FLOAT"}, "data_format": {"s": "TkhXQw=="}, "dilations": {"list": {"i": ["1", "1", "1", "1"]}}}}, {"name": "PartitionedCall/model_1/tf.math.add_24/Add", "op": "AddV2", "input": ["PartitionedCall/model_1/tf.nn.convolution_19/convolution", "21407"], "attr": {"T": {"type": "DT_FLOAT"}}}, {"name": "PartitionedCall/model_1/tf.math.sigmoid_19/Sigmoid", "op": "Sigmoid", "input": ["PartitionedCall/model_1/tf.math.add_24/Add"], "attr": {"T": {"type": "DT_FLOAT"}}}, {"name": "PartitionedCall/model_1/tf.math.multiply_69/Mul", "op": "Mul", "input": ["PartitionedCall/model_1/tf.math.add_24/Add", "PartitionedCall/model_1/tf.math.sigmoid_19/Sigmoid"], "attr": {"T": {"type": "DT_FLOAT"}}}, {"name": "PartitionedCall/model_1/tf.compat.v1.pad_4/Pad", "op": "Pad", "input": ["PartitionedCall/model_1/tf.math.multiply_69/Mul", "21409"], "attr": {"Tpaddings": {"type": "DT_INT32"}, "T": {"type": "DT_FLOAT"}}}, {"name": "PartitionedCall/model_1/tf.nn.convolution_20/convolution", "op": "Conv2D", "input": ["PartitionedCall/model_1/tf.compat.v1.pad_4/Pad", "21411"], "device": "/device:CPU:0", "attr": {"T": {"type": "DT_FLOAT"}, "dilations": {"list": {"i": ["1", "1", "1", "1"]}}, "explicit_paddings": {"list": {}}, "data_format": {"s": "TkhXQw=="}, "padding": {"s": "VkFMSUQ="}, "use_cudnn_on_gpu": {"b": true}, "strides": {"list": {"i": ["1", "2", "2", "1"]}}}}, {"name": "PartitionedCall/model_1/tf.math.add_25/Add", "op": "AddV2", "input": ["PartitionedCall/model_1/tf.nn.convolution_20/convolution", "21413"], "attr": {"T": {"type": "DT_FLOAT"}}}, {"name": "PartitionedCall/model_1/tf.math.sigmoid_20/Sigmoid", "op": "Sigmoid", "input": ["PartitionedCall/model_1/tf.math.add_25/Add"], "attr": {"T": {"type": "DT_FLOAT"}}}, {"name": "PartitionedCall/model_1/tf.math.multiply_72/Mul", "op": "Mul", "input": ["PartitionedCall/model_1/tf.math.add_25/Add", "PartitionedCall/model_1/tf.math.sigmoid_20/Sigmoid"], "attr": {"T": {"type": "DT_FLOAT"}}}, {"name": "PartitionedCall/model_1/tf.nn.convolution_21/convolution", "op": "Conv2D", "input": ["PartitionedCall/model_1/tf.math.multiply_72/Mul", "21415"], "device": "/device:CPU:0", "attr": {"dilations": {"list": {"i": ["1", "1", "1", "1"]}}, "data_format": {"s": "TkhXQw=="}, "explicit_paddings": {"list": {}}, "use_cudnn_on_gpu": {"b": true}, "T": {"type": "DT_FLOAT"}, "padding": {"s": "U0FNRQ=="}, "strides": {"list": {"i": ["1", "1", "1", "1"]}}}}, {"name": "PartitionedCall/model_1/tf.math.add_26/Add", "op": "AddV2", "input": ["PartitionedCall/model_1/tf.nn.convolution_21/convolution", "21417"], "attr": {"T": {"type": "DT_FLOAT"}}}, {"name": "PartitionedCall/model_1/tf.math.sigmoid_21/Sigmoid", "op": "Sigmoid", "input": ["PartitionedCall/model_1/tf.math.add_26/Add"], "attr": {"T": {"type": "DT_FLOAT"}}}, {"name": "PartitionedCall/model_1/tf.math.multiply_75/Mul", "op": "Mul", "input": ["PartitionedCall/model_1/tf.math.add_26/Add", "PartitionedCall/model_1/tf.math.sigmoid_21/Sigmoid"], "attr": {"T": {"type": "DT_FLOAT"}}}, {"name": "PartitionedCall/model_1/tf.strided_slice_6/StridedSlice", "op": "StridedSlice", "input": ["PartitionedCall/model_1/tf.math.multiply_75/Mul", "21431", "21433", "PartitionedCall/model_1/tf.strided_slice_6/ones_like"], "attr": {"T": {"type": "DT_FLOAT"}, "new_axis_mask": {"i": "0"}, "end_mask": {"i": "7"}, "shrink_axis_mask": {"i": "0"}, "Index": {"type": "DT_INT64"}, "ellipsis_mask": {"i": "0"}, "begin_mask": {"i": "15"}}}, {"name": "PartitionedCall/model_1/tf.strided_slice_7/StridedSlice", "op": "StridedSlice", "input": ["PartitionedCall/model_1/tf.math.multiply_75/Mul", "21419", "21421", "PartitionedCall/model_1/tf.strided_slice_7/ones_like"], "attr": {"ellipsis_mask": {"i": "0"}, "T": {"type": "DT_FLOAT"}, "new_axis_mask": {"i": "0"}, "end_mask": {"i": "7"}, "shrink_axis_mask": {"i": "0"}, "Index": {"type": "DT_INT64"}, "begin_mask": {"i": "7"}}}, {"name": "PartitionedCall/model_1/tf.nn.convolution_22/convolution", "op": "Conv2D", "input": ["PartitionedCall/model_1/tf.strided_slice_7/StridedSlice", "21423"], "device": "/device:CPU:0", "attr": {"padding": {"s": "U0FNRQ=="}, "dilations": {"list": {"i": ["1", "1", "1", "1"]}}, "data_format": {"s": "TkhXQw=="}, "T": {"type": "DT_FLOAT"}, "explicit_paddings": {"list": {}}, "strides": {"list": {"i": ["1", "1", "1", "1"]}}, "use_cudnn_on_gpu": {"b": true}}}, {"name": "PartitionedCall/model_1/tf.math.add_27/Add", "op": "AddV2", "input": ["PartitionedCall/model_1/tf.nn.convolution_22/convolution", "21425"], "attr": {"T": {"type": "DT_FLOAT"}}}, {"name": "PartitionedCall/model_1/tf.math.sigmoid_22/Sigmoid", "op": "Sigmoid", "input": ["PartitionedCall/model_1/tf.math.add_27/Add"], "attr": {"T": {"type": "DT_FLOAT"}}}, {"name": "PartitionedCall/model_1/tf.math.multiply_78/Mul", "op": "Mul", "input": ["PartitionedCall/model_1/tf.math.add_27/Add", "PartitionedCall/model_1/tf.math.sigmoid_22/Sigmoid"], "attr": {"T": {"type": "DT_FLOAT"}}}, {"name": "PartitionedCall/model_1/tf.nn.convolution_23/convolution", "op": "Conv2D", "input": ["PartitionedCall/model_1/tf.math.multiply_78/Mul", "21427"], "device": "/device:CPU:0", "attr": {"T": {"type": "DT_FLOAT"}, "data_format": {"s": "TkhXQw=="}, "dilations": {"list": {"i": ["1", "1", "1", "1"]}}, "padding": {"s": "U0FNRQ=="}, "strides": {"list": {"i": ["1", "1", "1", "1"]}}, "explicit_paddings": {"list": {}}, "use_cudnn_on_gpu": {"b": true}}}, {"name": "PartitionedCall/model_1/tf.math.add_28/Add", "op": "AddV2", "input": ["PartitionedCall/model_1/tf.nn.convolution_23/convolution", "21429"], "attr": {"T": {"type": "DT_FLOAT"}}}, {"name": "PartitionedCall/model_1/tf.math.sigmoid_23/Sigmoid", "op": "Sigmoid", "input": ["PartitionedCall/model_1/tf.math.add_28/Add"], "attr": {"T": {"type": "DT_FLOAT"}}}, {"name": "PartitionedCall/model_1/tf.math.multiply_81/Mul", "op": "Mul", "input": ["PartitionedCall/model_1/tf.math.add_28/Add", "PartitionedCall/model_1/tf.math.sigmoid_23/Sigmoid"], "attr": {"T": {"type": "DT_FLOAT"}}}, {"name": "PartitionedCall/model_1/tf.math.add_29/Add", "op": "AddV2", "input": ["PartitionedCall/model_1/tf.strided_slice_7/StridedSlice", "PartitionedCall/model_1/tf.math.multiply_81/Mul"], "attr": {"T": {"type": "DT_FLOAT"}}}, {"name": "PartitionedCall/model_1/tf.concat_3/concat", "op": "ConcatV2", "input": ["PartitionedCall/model_1/tf.strided_slice_6/StridedSlice", "PartitionedCall/model_1/tf.strided_slice_7/StridedSlice", "PartitionedCall/model_1/tf.math.add_29/Add", "PartitionedCall/model_1/tf.concat_3/concat/axis"], "attr": {"Tidx": {"type": "DT_INT32"}, "N": {"i": "3"}, "T": {"type": "DT_FLOAT"}}}, {"name": "PartitionedCall/model_1/tf.nn.convolution_24/convolution", "op": "Conv2D", "input": ["PartitionedCall/model_1/tf.concat_3/concat", "21435"], "device": "/device:CPU:0", "attr": {"dilations": {"list": {"i": ["1", "1", "1", "1"]}}, "data_format": {"s": "TkhXQw=="}, "explicit_paddings": {"list": {}}, "padding": {"s": "U0FNRQ=="}, "use_cudnn_on_gpu": {"b": true}, "T": {"type": "DT_FLOAT"}, "strides": {"list": {"i": ["1", "1", "1", "1"]}}}}, {"name": "PartitionedCall/model_1/tf.math.add_30/Add", "op": "AddV2", "input": ["PartitionedCall/model_1/tf.nn.convolution_24/convolution", "21437"], "attr": {"T": {"type": "DT_FLOAT"}}}, {"name": "PartitionedCall/model_1/tf.math.sigmoid_24/Sigmoid", "op": "Sigmoid", "input": ["PartitionedCall/model_1/tf.math.add_30/Add"], "attr": {"T": {"type": "DT_FLOAT"}}}, {"name": "PartitionedCall/model_1/tf.math.multiply_86/Mul", "op": "Mul", "input": ["PartitionedCall/model_1/tf.math.add_30/Add", "PartitionedCall/model_1/tf.math.sigmoid_24/Sigmoid"], "attr": {"T": {"type": "DT_FLOAT"}}}, {"name": "PartitionedCall/model_1/tf.nn.convolution_25/convolution", "op": "Conv2D", "input": ["PartitionedCall/model_1/tf.math.multiply_86/Mul", "21439"], "device": "/device:CPU:0", "attr": {"dilations": {"list": {"i": ["1", "1", "1", "1"]}}, "data_format": {"s": "TkhXQw=="}, "explicit_paddings": {"list": {}}, "use_cudnn_on_gpu": {"b": true}, "padding": {"s": "U0FNRQ=="}, "T": {"type": "DT_FLOAT"}, "strides": {"list": {"i": ["1", "1", "1", "1"]}}}}, {"name": "PartitionedCall/model_1/tf.math.add_31/Add", "op": "AddV2", "input": ["PartitionedCall/model_1/tf.nn.convolution_25/convolution", "21441"], "attr": {"T": {"type": "DT_FLOAT"}}}, {"name": "PartitionedCall/model_1/tf.math.sigmoid_25/Sigmoid", "op": "Sigmoid", "input": ["PartitionedCall/model_1/tf.math.add_31/Add"], "attr": {"T": {"type": "DT_FLOAT"}}}, {"name": "PartitionedCall/model_1/tf.math.multiply_89/Mul", "op": "Mul", "input": ["PartitionedCall/model_1/tf.math.add_31/Add", "PartitionedCall/model_1/tf.math.sigmoid_25/Sigmoid"], "attr": {"T": {"type": "DT_FLOAT"}}}, {"name": "PartitionedCall/model_1/tf.compat.v1.nn.pool/max_pool", "op": "MaxPool", "input": ["PartitionedCall/model_1/tf.math.multiply_89/Mul"], "attr": {"data_format": {"s": "TkhXQw=="}, "strides": {"list": {"i": ["1", "1", "1", "1"]}}, "explicit_paddings": {"list": {}}, "padding": {"s": "U0FNRQ=="}, "ksize": {"list": {"i": ["1", "5", "5", "1"]}}, "T": {"type": "DT_FLOAT"}}}, {"name": "PartitionedCall/model_1/tf.compat.v1.nn.pool_1/max_pool", "op": "MaxPool", "input": ["PartitionedCall/model_1/tf.compat.v1.nn.pool/max_pool"], "attr": {"data_format": {"s": "TkhXQw=="}, "strides": {"list": {"i": ["1", "1", "1", "1"]}}, "explicit_paddings": {"list": {}}, "ksize": {"list": {"i": ["1", "5", "5", "1"]}}, "padding": {"s": "U0FNRQ=="}, "T": {"type": "DT_FLOAT"}}}, {"name": "PartitionedCall/model_1/tf.compat.v1.nn.pool_2/max_pool", "op": "MaxPool", "input": ["PartitionedCall/model_1/tf.compat.v1.nn.pool_1/max_pool"], "attr": {"data_format": {"s": "TkhXQw=="}, "explicit_paddings": {"list": {}}, "ksize": {"list": {"i": ["1", "5", "5", "1"]}}, "padding": {"s": "U0FNRQ=="}, "T": {"type": "DT_FLOAT"}, "strides": {"list": {"i": ["1", "1", "1", "1"]}}}}, {"name": "PartitionedCall/model_1/tf.concat_4/concat", "op": "ConcatV2", "input": ["PartitionedCall/model_1/tf.math.multiply_89/Mul", "PartitionedCall/model_1/tf.compat.v1.nn.pool/max_pool", "PartitionedCall/model_1/tf.compat.v1.nn.pool_1/max_pool", "PartitionedCall/model_1/tf.compat.v1.nn.pool_2/max_pool", "PartitionedCall/model_1/tf.concat_4/concat/axis"], "attr": {"N": {"i": "4"}, "T": {"type": "DT_FLOAT"}, "Tidx": {"type": "DT_INT32"}}}, {"name": "PartitionedCall/model_1/tf.nn.convolution_26/convolution", "op": "Conv2D", "input": ["PartitionedCall/model_1/tf.concat_4/concat", "21443"], "device": "/device:CPU:0", "attr": {"data_format": {"s": "TkhXQw=="}, "dilations": {"list": {"i": ["1", "1", "1", "1"]}}, "padding": {"s": "U0FNRQ=="}, "strides": {"list": {"i": ["1", "1", "1", "1"]}}, "T": {"type": "DT_FLOAT"}, "explicit_paddings": {"list": {}}, "use_cudnn_on_gpu": {"b": true}}}, {"name": "PartitionedCall/model_1/tf.math.add_32/Add", "op": "AddV2", "input": ["PartitionedCall/model_1/tf.nn.convolution_26/convolution", "21445"], "attr": {"T": {"type": "DT_FLOAT"}}}, {"name": "PartitionedCall/model_1/tf.math.sigmoid_26/Sigmoid", "op": "Sigmoid", "input": ["PartitionedCall/model_1/tf.math.add_32/Add"], "attr": {"T": {"type": "DT_FLOAT"}}}, {"name": "PartitionedCall/model_1/tf.math.multiply_92/Mul", "op": "Mul", "input": ["PartitionedCall/model_1/tf.math.add_32/Add", "PartitionedCall/model_1/tf.math.sigmoid_26/Sigmoid"], "attr": {"T": {"type": "DT_FLOAT"}}}, {"name": "PartitionedCall/model_1/lambda//model.10/Resize", "op": "ResizeNearestNeighbor", "input": ["PartitionedCall/model_1/tf.math.multiply_92/Mul", "PartitionedCall/model_1/lambda//model.10/Resize/size"], "attr": {"align_corners": {"b": false}, "T": {"type": "DT_FLOAT"}, "half_pixel_centers": {"b": false}}}, {"name": "PartitionedCall/model_1/tf.concat_5/concat", "op": "ConcatV2", "input": ["PartitionedCall/model_1/lambda//model.10/Resize", "PartitionedCall/model_1/tf.math.multiply_69/Mul", "PartitionedCall/model_1/tf.concat_5/concat/axis"], "attr": {"N": {"i": "2"}, "T": {"type": "DT_FLOAT"}, "Tidx": {"type": "DT_INT32"}}}, {"name": "PartitionedCall/model_1/tf.nn.convolution_27/convolution", "op": "Conv2D", "input": ["PartitionedCall/model_1/tf.concat_5/concat", "21447"], "device": "/device:CPU:0", "attr": {"data_format": {"s": "TkhXQw=="}, "explicit_paddings": {"list": {}}, "use_cudnn_on_gpu": {"b": true}, "padding": {"s": "U0FNRQ=="}, "strides": {"list": {"i": ["1", "1", "1", "1"]}}, "T": {"type": "DT_FLOAT"}, "dilations": {"list": {"i": ["1", "1", "1", "1"]}}}}, {"name": "PartitionedCall/model_1/tf.math.add_33/Add", "op": "AddV2", "input": ["PartitionedCall/model_1/tf.nn.convolution_27/convolution", "21449"], "attr": {"T": {"type": "DT_FLOAT"}}}, {"name": "PartitionedCall/model_1/tf.math.sigmoid_27/Sigmoid", "op": "Sigmoid", "input": ["PartitionedCall/model_1/tf.math.add_33/Add"], "attr": {"T": {"type": "DT_FLOAT"}}}, {"name": "PartitionedCall/model_1/tf.math.multiply_95/Mul", "op": "Mul", "input": ["PartitionedCall/model_1/tf.math.add_33/Add", "PartitionedCall/model_1/tf.math.sigmoid_27/Sigmoid"], "attr": {"T": {"type": "DT_FLOAT"}}}, {"name": "PartitionedCall/model_1/tf.strided_slice_8/StridedSlice", "op": "StridedSlice", "input": ["PartitionedCall/model_1/tf.math.multiply_95/Mul", "21463", "21465", "PartitionedCall/model_1/tf.strided_slice_8/ones_like"], "attr": {"new_axis_mask": {"i": "0"}, "end_mask": {"i": "7"}, "begin_mask": {"i": "15"}, "ellipsis_mask": {"i": "0"}, "shrink_axis_mask": {"i": "0"}, "T": {"type": "DT_FLOAT"}, "Index": {"type": "DT_INT64"}}}, {"name": "PartitionedCall/model_1/tf.strided_slice_9/StridedSlice", "op": "StridedSlice", "input": ["PartitionedCall/model_1/tf.math.multiply_95/Mul", "21451", "21453", "PartitionedCall/model_1/tf.strided_slice_9/ones_like"], "attr": {"T": {"type": "DT_FLOAT"}, "Index": {"type": "DT_INT64"}, "new_axis_mask": {"i": "0"}, "shrink_axis_mask": {"i": "0"}, "end_mask": {"i": "7"}, "begin_mask": {"i": "7"}, "ellipsis_mask": {"i": "0"}}}, {"name": "PartitionedCall/model_1/tf.nn.convolution_28/convolution", "op": "Conv2D", "input": ["PartitionedCall/model_1/tf.strided_slice_9/StridedSlice", "21455"], "device": "/device:CPU:0", "attr": {"T": {"type": "DT_FLOAT"}, "explicit_paddings": {"list": {}}, "use_cudnn_on_gpu": {"b": true}, "strides": {"list": {"i": ["1", "1", "1", "1"]}}, "dilations": {"list": {"i": ["1", "1", "1", "1"]}}, "padding": {"s": "U0FNRQ=="}, "data_format": {"s": "TkhXQw=="}}}, {"name": "PartitionedCall/model_1/tf.math.add_34/Add", "op": "AddV2", "input": ["PartitionedCall/model_1/tf.nn.convolution_28/convolution", "21457"], "attr": {"T": {"type": "DT_FLOAT"}}}, {"name": "PartitionedCall/model_1/tf.math.sigmoid_28/Sigmoid", "op": "Sigmoid", "input": ["PartitionedCall/model_1/tf.math.add_34/Add"], "attr": {"T": {"type": "DT_FLOAT"}}}, {"name": "PartitionedCall/model_1/tf.math.multiply_98/Mul", "op": "Mul", "input": ["PartitionedCall/model_1/tf.math.add_34/Add", "PartitionedCall/model_1/tf.math.sigmoid_28/Sigmoid"], "attr": {"T": {"type": "DT_FLOAT"}}}, {"name": "PartitionedCall/model_1/tf.nn.convolution_29/convolution", "op": "Conv2D", "input": ["PartitionedCall/model_1/tf.math.multiply_98/Mul", "21459"], "device": "/device:CPU:0", "attr": {"padding": {"s": "U0FNRQ=="}, "T": {"type": "DT_FLOAT"}, "dilations": {"list": {"i": ["1", "1", "1", "1"]}}, "strides": {"list": {"i": ["1", "1", "1", "1"]}}, "data_format": {"s": "TkhXQw=="}, "use_cudnn_on_gpu": {"b": true}, "explicit_paddings": {"list": {}}}}, {"name": "PartitionedCall/model_1/tf.math.add_35/Add", "op": "AddV2", "input": ["PartitionedCall/model_1/tf.nn.convolution_29/convolution", "21461"], "attr": {"T": {"type": "DT_FLOAT"}}}, {"name": "PartitionedCall/model_1/tf.math.sigmoid_29/Sigmoid", "op": "Sigmoid", "input": ["PartitionedCall/model_1/tf.math.add_35/Add"], "attr": {"T": {"type": "DT_FLOAT"}}}, {"name": "PartitionedCall/model_1/tf.math.multiply_101/Mul", "op": "Mul", "input": ["PartitionedCall/model_1/tf.math.add_35/Add", "PartitionedCall/model_1/tf.math.sigmoid_29/Sigmoid"], "attr": {"T": {"type": "DT_FLOAT"}}}, {"name": "PartitionedCall/model_1/tf.concat_6/concat", "op": "ConcatV2", "input": ["PartitionedCall/model_1/tf.strided_slice_8/StridedSlice", "PartitionedCall/model_1/tf.strided_slice_9/StridedSlice", "PartitionedCall/model_1/tf.math.multiply_101/Mul", "PartitionedCall/model_1/tf.concat_6/concat/axis"], "attr": {"Tidx": {"type": "DT_INT32"}, "T": {"type": "DT_FLOAT"}, "N": {"i": "3"}}}, {"name": "PartitionedCall/model_1/tf.nn.convolution_30/convolution", "op": "Conv2D", "input": ["PartitionedCall/model_1/tf.concat_6/concat", "21467"], "device": "/device:CPU:0", "attr": {"use_cudnn_on_gpu": {"b": true}, "T": {"type": "DT_FLOAT"}, "padding": {"s": "U0FNRQ=="}, "strides": {"list": {"i": ["1", "1", "1", "1"]}}, "data_format": {"s": "TkhXQw=="}, "explicit_paddings": {"list": {}}, "dilations": {"list": {"i": ["1", "1", "1", "1"]}}}}, {"name": "PartitionedCall/model_1/tf.math.add_36/Add", "op": "AddV2", "input": ["PartitionedCall/model_1/tf.nn.convolution_30/convolution", "21469"], "attr": {"T": {"type": "DT_FLOAT"}}}, {"name": "PartitionedCall/model_1/tf.math.sigmoid_30/Sigmoid", "op": "Sigmoid", "input": ["PartitionedCall/model_1/tf.math.add_36/Add"], "attr": {"T": {"type": "DT_FLOAT"}}}, {"name": "PartitionedCall/model_1/tf.math.multiply_104/Mul", "op": "Mul", "input": ["PartitionedCall/model_1/tf.math.add_36/Add", "PartitionedCall/model_1/tf.math.sigmoid_30/Sigmoid"], "attr": {"T": {"type": "DT_FLOAT"}}}, {"name": "PartitionedCall/model_1/lambda_1//model.13/Resize", "op": "ResizeNearestNeighbor", "input": ["PartitionedCall/model_1/tf.math.multiply_104/Mul", "PartitionedCall/model_1/lambda_1//model.13/Resize/size"], "attr": {"half_pixel_centers": {"b": false}, "align_corners": {"b": false}, "T": {"type": "DT_FLOAT"}}}, {"name": "PartitionedCall/model_1/tf.concat_7/concat", "op": "ConcatV2", "input": ["PartitionedCall/model_1/lambda_1//model.13/Resize", "PartitionedCall/model_1/tf.math.multiply_44/Mul", "PartitionedCall/model_1/tf.concat_7/concat/axis"], "attr": {"Tidx": {"type": "DT_INT32"}, "T": {"type": "DT_FLOAT"}, "N": {"i": "2"}}}, {"name": "PartitionedCall/model_1/tf.nn.convolution_31/convolution", "op": "Conv2D", "input": ["PartitionedCall/model_1/tf.concat_7/concat", "21471"], "device": "/device:CPU:0", "attr": {"strides": {"list": {"i": ["1", "1", "1", "1"]}}, "use_cudnn_on_gpu": {"b": true}, "data_format": {"s": "TkhXQw=="}, "padding": {"s": "U0FNRQ=="}, "T": {"type": "DT_FLOAT"}, "explicit_paddings": {"list": {}}, "dilations": {"list": {"i": ["1", "1", "1", "1"]}}}}, {"name": "PartitionedCall/model_1/tf.math.add_37/Add", "op": "AddV2", "input": ["PartitionedCall/model_1/tf.nn.convolution_31/convolution", "21473"], "attr": {"T": {"type": "DT_FLOAT"}}}, {"name": "PartitionedCall/model_1/tf.math.sigmoid_31/Sigmoid", "op": "Sigmoid", "input": ["PartitionedCall/model_1/tf.math.add_37/Add"], "attr": {"T": {"type": "DT_FLOAT"}}}, {"name": "PartitionedCall/model_1/tf.math.multiply_107/Mul", "op": "Mul", "input": ["PartitionedCall/model_1/tf.math.add_37/Add", "PartitionedCall/model_1/tf.math.sigmoid_31/Sigmoid"], "attr": {"T": {"type": "DT_FLOAT"}}}, {"name": "PartitionedCall/model_1/tf.strided_slice_10/StridedSlice", "op": "StridedSlice", "input": ["PartitionedCall/model_1/tf.math.multiply_107/Mul", "21487", "21489", "PartitionedCall/model_1/tf.strided_slice_10/ones_like"], "attr": {"begin_mask": {"i": "15"}, "shrink_axis_mask": {"i": "0"}, "new_axis_mask": {"i": "0"}, "ellipsis_mask": {"i": "0"}, "end_mask": {"i": "7"}, "Index": {"type": "DT_INT64"}, "T": {"type": "DT_FLOAT"}}}, {"name": "PartitionedCall/model_1/tf.strided_slice_11/StridedSlice", "op": "StridedSlice", "input": ["PartitionedCall/model_1/tf.math.multiply_107/Mul", "21475", "21477", "PartitionedCall/model_1/tf.strided_slice_11/ones_like"], "attr": {"new_axis_mask": {"i": "0"}, "begin_mask": {"i": "7"}, "Index": {"type": "DT_INT64"}, "ellipsis_mask": {"i": "0"}, "end_mask": {"i": "7"}, "T": {"type": "DT_FLOAT"}, "shrink_axis_mask": {"i": "0"}}}, {"name": "PartitionedCall/model_1/tf.nn.convolution_32/convolution", "op": "Conv2D", "input": ["PartitionedCall/model_1/tf.strided_slice_11/StridedSlice", "21479"], "device": "/device:CPU:0", "attr": {"dilations": {"list": {"i": ["1", "1", "1", "1"]}}, "padding": {"s": "U0FNRQ=="}, "strides": {"list": {"i": ["1", "1", "1", "1"]}}, "use_cudnn_on_gpu": {"b": true}, "explicit_paddings": {"list": {}}, "data_format": {"s": "TkhXQw=="}, "T": {"type": "DT_FLOAT"}}}, {"name": "PartitionedCall/model_1/tf.math.add_38/Add", "op": "AddV2", "input": ["PartitionedCall/model_1/tf.nn.convolution_32/convolution", "21481"], "attr": {"T": {"type": "DT_FLOAT"}}}, {"name": "PartitionedCall/model_1/tf.math.sigmoid_32/Sigmoid", "op": "Sigmoid", "input": ["PartitionedCall/model_1/tf.math.add_38/Add"], "attr": {"T": {"type": "DT_FLOAT"}}}, {"name": "PartitionedCall/model_1/tf.math.multiply_110/Mul", "op": "Mul", "input": ["PartitionedCall/model_1/tf.math.add_38/Add", "PartitionedCall/model_1/tf.math.sigmoid_32/Sigmoid"], "attr": {"T": {"type": "DT_FLOAT"}}}, {"name": "PartitionedCall/model_1/tf.nn.convolution_33/convolution", "op": "Conv2D", "input": ["PartitionedCall/model_1/tf.math.multiply_110/Mul", "21483"], "device": "/device:CPU:0", "attr": {"explicit_paddings": {"list": {}}, "data_format": {"s": "TkhXQw=="}, "dilations": {"list": {"i": ["1", "1", "1", "1"]}}, "padding": {"s": "U0FNRQ=="}, "strides": {"list": {"i": ["1", "1", "1", "1"]}}, "use_cudnn_on_gpu": {"b": true}, "T": {"type": "DT_FLOAT"}}}, {"name": "PartitionedCall/model_1/tf.math.add_39/Add", "op": "AddV2", "input": ["PartitionedCall/model_1/tf.nn.convolution_33/convolution", "21485"], "attr": {"T": {"type": "DT_FLOAT"}}}, {"name": "PartitionedCall/model_1/tf.math.sigmoid_33/Sigmoid", "op": "Sigmoid", "input": ["PartitionedCall/model_1/tf.math.add_39/Add"], "attr": {"T": {"type": "DT_FLOAT"}}}, {"name": "PartitionedCall/model_1/tf.math.multiply_113/Mul", "op": "Mul", "input": ["PartitionedCall/model_1/tf.math.add_39/Add", "PartitionedCall/model_1/tf.math.sigmoid_33/Sigmoid"], "attr": {"T": {"type": "DT_FLOAT"}}}, {"name": "PartitionedCall/model_1/tf.concat_8/concat", "op": "ConcatV2", "input": ["PartitionedCall/model_1/tf.strided_slice_10/StridedSlice", "PartitionedCall/model_1/tf.strided_slice_11/StridedSlice", "PartitionedCall/model_1/tf.math.multiply_113/Mul", "PartitionedCall/model_1/tf.concat_8/concat/axis"], "attr": {"Tidx": {"type": "DT_INT32"}, "T": {"type": "DT_FLOAT"}, "N": {"i": "3"}}}, {"name": "PartitionedCall/model_1/tf.nn.convolution_34/convolution", "op": "Conv2D", "input": ["PartitionedCall/model_1/tf.concat_8/concat", "21491"], "device": "/device:CPU:0", "attr": {"strides": {"list": {"i": ["1", "1", "1", "1"]}}, "use_cudnn_on_gpu": {"b": true}, "T": {"type": "DT_FLOAT"}, "data_format": {"s": "TkhXQw=="}, "explicit_paddings": {"list": {}}, "dilations": {"list": {"i": ["1", "1", "1", "1"]}}, "padding": {"s": "U0FNRQ=="}}}, {"name": "PartitionedCall/model_1/tf.math.add_40/Add", "op": "AddV2", "input": ["PartitionedCall/model_1/tf.nn.convolution_34/convolution", "21493"], "attr": {"T": {"type": "DT_FLOAT"}}}, {"name": "PartitionedCall/model_1/tf.math.sigmoid_34/Sigmoid", "op": "Sigmoid", "input": ["PartitionedCall/model_1/tf.math.add_40/Add"], "attr": {"T": {"type": "DT_FLOAT"}}}, {"name": "PartitionedCall/model_1/tf.math.multiply_116/Mul", "op": "Mul", "input": ["PartitionedCall/model_1/tf.math.add_40/Add", "PartitionedCall/model_1/tf.math.sigmoid_34/Sigmoid"], "attr": {"T": {"type": "DT_FLOAT"}}}, {"name": "PartitionedCall/model_1/tf.nn.convolution_36/convolution", "op": "Conv2D", "input": ["PartitionedCall/model_1/tf.math.multiply_116/Mul", "21569"], "device": "/device:CPU:0", "attr": {"use_cudnn_on_gpu": {"b": true}, "padding": {"s": "U0FNRQ=="}, "T": {"type": "DT_FLOAT"}, "data_format": {"s": "TkhXQw=="}, "dilations": {"list": {"i": ["1", "1", "1", "1"]}}, "explicit_paddings": {"list": {}}, "strides": {"list": {"i": ["1", "1", "1", "1"]}}}}, {"name": "PartitionedCall/model_1/tf.nn.convolution_37/convolution", "op": "Conv2D", "input": ["PartitionedCall/model_1/tf.math.multiply_116/Mul", "21567"], "device": "/device:CPU:0", "attr": {"padding": {"s": "U0FNRQ=="}, "T": {"type": "DT_FLOAT"}, "strides": {"list": {"i": ["1", "1", "1", "1"]}}, "data_format": {"s": "TkhXQw=="}, "explicit_paddings": {"list": {}}, "dilations": {"list": {"i": ["1", "1", "1", "1"]}}, "use_cudnn_on_gpu": {"b": true}}}, {"name": "PartitionedCall/model_1/tf.compat.v1.pad_5/Pad", "op": "Pad", "input": ["PartitionedCall/model_1/tf.math.multiply_116/Mul", "21495"], "attr": {"T": {"type": "DT_FLOAT"}, "Tpaddings": {"type": "DT_INT32"}}}, {"name": "PartitionedCall/model_1/tf.math.add_42/Add", "op": "AddV2", "input": ["PartitionedCall/model_1/tf.nn.convolution_36/convolution", "21577"], "attr": {"T": {"type": "DT_FLOAT"}}}, {"name": "PartitionedCall/model_1/tf.math.add_43/Add", "op": "AddV2", "input": ["PartitionedCall/model_1/tf.nn.convolution_37/convolution", "21575"], "attr": {"T": {"type": "DT_FLOAT"}}}, {"name": "PartitionedCall/model_1/tf.nn.convolution_35/convolution", "op": "Conv2D", "input": ["PartitionedCall/model_1/tf.compat.v1.pad_5/Pad", "21497"], "device": "/device:CPU:0", "attr": {"dilations": {"list": {"i": ["1", "1", "1", "1"]}}, "strides": {"list": {"i": ["1", "2", "2", "1"]}}, "explicit_paddings": {"list": {}}, "use_cudnn_on_gpu": {"b": true}, "padding": {"s": "VkFMSUQ="}, "T": {"type": "DT_FLOAT"}, "data_format": {"s": "TkhXQw=="}}}, {"name": "PartitionedCall/model_1/tf.math.sigmoid_36/Sigmoid", "op": "Sigmoid", "input": ["PartitionedCall/model_1/tf.math.add_42/Add"], "attr": {"T": {"type": "DT_FLOAT"}}}, {"name": "PartitionedCall/model_1/tf.math.sigmoid_37/Sigmoid", "op": "Sigmoid", "input": ["PartitionedCall/model_1/tf.math.add_43/Add"], "attr": {"T": {"type": "DT_FLOAT"}}}, {"name": "PartitionedCall/model_1/tf.math.add_41/Add", "op": "AddV2", "input": ["PartitionedCall/model_1/tf.nn.convolution_35/convolution", "21499"], "attr": {"T": {"type": "DT_FLOAT"}}}, {"name": "PartitionedCall/model_1/tf.math.multiply_122/Mul", "op": "Mul", "input": ["PartitionedCall/model_1/tf.math.add_42/Add", "PartitionedCall/model_1/tf.math.sigmoid_36/Sigmoid"], "attr": {"T": {"type": "DT_FLOAT"}}}, {"name": "PartitionedCall/model_1/tf.math.multiply_125/Mul", "op": "Mul", "input": ["PartitionedCall/model_1/tf.math.add_43/Add", "PartitionedCall/model_1/tf.math.sigmoid_37/Sigmoid"], "attr": {"T": {"type": "DT_FLOAT"}}}, {"name": "PartitionedCall/model_1/tf.math.sigmoid_35/Sigmoid", "op": "Sigmoid", "input": ["PartitionedCall/model_1/tf.math.add_41/Add"], "attr": {"T": {"type": "DT_FLOAT"}}}, {"name": "PartitionedCall/model_1/tf.nn.convolution_38/convolution", "op": "Conv2D", "input": ["PartitionedCall/model_1/tf.math.multiply_122/Mul", "21593"], "device": "/device:CPU:0", "attr": {"use_cudnn_on_gpu": {"b": true}, "T": {"type": "DT_FLOAT"}, "padding": {"s": "U0FNRQ=="}, "strides": {"list": {"i": ["1", "1", "1", "1"]}}, "explicit_paddings": {"list": {}}, "data_format": {"s": "TkhXQw=="}, "dilations": {"list": {"i": ["1", "1", "1", "1"]}}}}, {"name": "PartitionedCall/model_1/tf.nn.convolution_39/convolution", "op": "Conv2D", "input": ["PartitionedCall/model_1/tf.math.multiply_125/Mul", "21591"], "device": "/device:CPU:0", "attr": {"use_cudnn_on_gpu": {"b": true}, "strides": {"list": {"i": ["1", "1", "1", "1"]}}, "T": {"type": "DT_FLOAT"}, "data_format": {"s": "TkhXQw=="}, "dilations": {"list": {"i": ["1", "1", "1", "1"]}}, "explicit_paddings": {"list": {}}, "padding": {"s": "U0FNRQ=="}}}, {"name": "PartitionedCall/model_1/tf.math.multiply_119/Mul", "op": "Mul", "input": ["PartitionedCall/model_1/tf.math.add_41/Add", "PartitionedCall/model_1/tf.math.sigmoid_35/Sigmoid"], "attr": {"T": {"type": "DT_FLOAT"}}}, {"name": "PartitionedCall/model_1/tf.math.add_44/Add", "op": "AddV2", "input": ["PartitionedCall/model_1/tf.nn.convolution_38/convolution", "21601"], "attr": {"T": {"type": "DT_FLOAT"}}}, {"name": "PartitionedCall/model_1/tf.math.add_45/Add", "op": "AddV2", "input": ["PartitionedCall/model_1/tf.nn.convolution_39/convolution", "21599"], "attr": {"T": {"type": "DT_FLOAT"}}}, {"name": "PartitionedCall/model_1/tf.concat_9/concat", "op": "ConcatV2", "input": ["PartitionedCall/model_1/tf.math.multiply_119/Mul", "PartitionedCall/model_1/tf.math.multiply_104/Mul", "PartitionedCall/model_1/tf.concat_9/concat/axis"], "attr": {"T": {"type": "DT_FLOAT"}, "N": {"i": "2"}, "Tidx": {"type": "DT_INT32"}}}, {"name": "PartitionedCall/model_1/tf.math.sigmoid_38/Sigmoid", "op": "Sigmoid", "input": ["PartitionedCall/model_1/tf.math.add_44/Add"], "attr": {"T": {"type": "DT_FLOAT"}}}, {"name": "PartitionedCall/model_1/tf.math.sigmoid_39/Sigmoid", "op": "Sigmoid", "input": ["PartitionedCall/model_1/tf.math.add_45/Add"], "attr": {"T": {"type": "DT_FLOAT"}}}, {"name": "PartitionedCall/model_1/tf.nn.convolution_40/convolution", "op": "Conv2D", "input": ["PartitionedCall/model_1/tf.concat_9/concat", "21501"], "device": "/device:CPU:0", "attr": {"data_format": {"s": "TkhXQw=="}, "explicit_paddings": {"list": {}}, "dilations": {"list": {"i": ["1", "1", "1", "1"]}}, "T": {"type": "DT_FLOAT"}, "padding": {"s": "U0FNRQ=="}, "strides": {"list": {"i": ["1", "1", "1", "1"]}}, "use_cudnn_on_gpu": {"b": true}}}, {"name": "PartitionedCall/model_1/tf.math.multiply_128/Mul", "op": "Mul", "input": ["PartitionedCall/model_1/tf.math.add_44/Add", "PartitionedCall/model_1/tf.math.sigmoid_38/Sigmoid"], "attr": {"T": {"type": "DT_FLOAT"}}}, {"name": "PartitionedCall/model_1/tf.math.multiply_131/Mul", "op": "Mul", "input": ["PartitionedCall/model_1/tf.math.add_45/Add", "PartitionedCall/model_1/tf.math.sigmoid_39/Sigmoid"], "attr": {"T": {"type": "DT_FLOAT"}}}, {"name": "PartitionedCall/model_1/tf.math.add_46/Add", "op": "AddV2", "input": ["PartitionedCall/model_1/tf.nn.convolution_40/convolution", "21503"], "attr": {"T": {"type": "DT_FLOAT"}}}, {"name": "PartitionedCall/model_1/tf.nn.convolution_41/convolution", "op": "Conv2D", "input": ["PartitionedCall/model_1/tf.math.multiply_128/Mul", "21617"], "device": "/device:CPU:0", "attr": {"use_cudnn_on_gpu": {"b": true}, "padding": {"s": "U0FNRQ=="}, "T": {"type": "DT_FLOAT"}, "explicit_paddings": {"list": {}}, "strides": {"list": {"i": ["1", "1", "1", "1"]}}, "data_format": {"s": "TkhXQw=="}, "dilations": {"list": {"i": ["1", "1", "1", "1"]}}}}, {"name": "PartitionedCall/model_1/tf.nn.convolution_42/convolution", "op": "Conv2D", "input": ["PartitionedCall/model_1/tf.math.multiply_131/Mul", "21615"], "device": "/device:CPU:0", "attr": {"data_format": {"s": "TkhXQw=="}, "padding": {"s": "U0FNRQ=="}, "strides": {"list": {"i": ["1", "1", "1", "1"]}}, "T": {"type": "DT_FLOAT"}, "explicit_paddings": {"list": {}}, "dilations": {"list": {"i": ["1", "1", "1", "1"]}}, "use_cudnn_on_gpu": {"b": true}}}, {"name": "PartitionedCall/model_1/tf.math.sigmoid_40/Sigmoid", "op": "Sigmoid", "input": ["PartitionedCall/model_1/tf.math.add_46/Add"], "attr": {"T": {"type": "DT_FLOAT"}}}, {"name": "PartitionedCall/model_1/tf.math.add_47/Add", "op": "AddV2", "input": ["PartitionedCall/model_1/tf.nn.convolution_41/convolution", "21623"], "attr": {"T": {"type": "DT_FLOAT"}}}, {"name": "PartitionedCall/model_1/tf.math.add_48/Add", "op": "AddV2", "input": ["PartitionedCall/model_1/tf.nn.convolution_42/convolution", "21625"], "attr": {"T": {"type": "DT_FLOAT"}}}, {"name": "PartitionedCall/model_1/tf.math.multiply_134/Mul", "op": "Mul", "input": ["PartitionedCall/model_1/tf.math.add_46/Add", "PartitionedCall/model_1/tf.math.sigmoid_40/Sigmoid"], "attr": {"T": {"type": "DT_FLOAT"}}}, {"name": "PartitionedCall/model_1/tf.concat_10/concat", "op": "ConcatV2", "input": ["PartitionedCall/model_1/tf.math.add_47/Add", "PartitionedCall/model_1/tf.math.add_48/Add", "PartitionedCall/model_1/tf.concat_10/concat/axis"], "attr": {"Tidx": {"type": "DT_INT32"}, "T": {"type": "DT_FLOAT"}, "N": {"i": "2"}}}, {"name": "PartitionedCall/model_1/tf.strided_slice_12/StridedSlice", "op": "StridedSlice", "input": ["PartitionedCall/model_1/tf.math.multiply_134/Mul", "21517", "21519", "PartitionedCall/model_1/tf.strided_slice_12/ones_like"], "attr": {"shrink_axis_mask": {"i": "0"}, "ellipsis_mask": {"i": "0"}, "end_mask": {"i": "7"}, "new_axis_mask": {"i": "0"}, "begin_mask": {"i": "15"}, "Index": {"type": "DT_INT64"}, "T": {"type": "DT_FLOAT"}}}, {"name": "PartitionedCall/model_1/tf.strided_slice_13/StridedSlice", "op": "StridedSlice", "input": ["PartitionedCall/model_1/tf.math.multiply_134/Mul", "21505", "21507", "PartitionedCall/model_1/tf.strided_slice_13/ones_like"], "attr": {"ellipsis_mask": {"i": "0"}, "shrink_axis_mask": {"i": "0"}, "end_mask": {"i": "7"}, "new_axis_mask": {"i": "0"}, "Index": {"type": "DT_INT64"}, "T": {"type": "DT_FLOAT"}, "begin_mask": {"i": "7"}}}, {"name": "PartitionedCall/model_1/tf.compat.v1.transpose/transpose", "op": "Transpose", "input": ["PartitionedCall/model_1/tf.concat_10/concat", "PartitionedCall/model_1/tf.compat.v1.transpose/transpose/perm"], "attr": {"Tperm": {"type": "DT_INT32"}, "T": {"type": "DT_FLOAT"}}}, {"name": "PartitionedCall/model_1/tf.nn.convolution_43/convolution", "op": "Conv2D", "input": ["PartitionedCall/model_1/tf.strided_slice_13/StridedSlice", "21509"], "device": "/device:CPU:0", "attr": {"T": {"type": "DT_FLOAT"}, "use_cudnn_on_gpu": {"b": true}, "strides": {"list": {"i": ["1", "1", "1", "1"]}}, "data_format": {"s": "TkhXQw=="}, "padding": {"s": "U0FNRQ=="}, "dilations": {"list": {"i": ["1", "1", "1", "1"]}}, "explicit_paddings": {"list": {}}}}, {"name": "PartitionedCall/model_1/tf.reshape/Reshape", "op": "Reshape", "input": ["PartitionedCall/model_1/tf.compat.v1.transpose/transpose", "PartitionedCall/model_1/tf.reshape/Reshape/shape"], "attr": {"T": {"type": "DT_FLOAT"}, "Tshape": {"type": "DT_INT32"}}}, {"name": "PartitionedCall/model_1/tf.math.add_49/Add", "op": "AddV2", "input": ["PartitionedCall/model_1/tf.nn.convolution_43/convolution", "21511"], "attr": {"T": {"type": "DT_FLOAT"}}}, {"name": "PartitionedCall/model_1/tf.math.sigmoid_41/Sigmoid", "op": "Sigmoid", "input": ["PartitionedCall/model_1/tf.math.add_49/Add"], "attr": {"T": {"type": "DT_FLOAT"}}}, {"name": "PartitionedCall/model_1/tf.math.multiply_137/Mul", "op": "Mul", "input": ["PartitionedCall/model_1/tf.math.add_49/Add", "PartitionedCall/model_1/tf.math.sigmoid_41/Sigmoid"], "attr": {"T": {"type": "DT_FLOAT"}}}, {"name": "PartitionedCall/model_1/tf.nn.convolution_44/convolution", "op": "Conv2D", "input": ["PartitionedCall/model_1/tf.math.multiply_137/Mul", "21513"], "device": "/device:CPU:0", "attr": {"data_format": {"s": "TkhXQw=="}, "T": {"type": "DT_FLOAT"}, "strides": {"list": {"i": ["1", "1", "1", "1"]}}, "dilations": {"list": {"i": ["1", "1", "1", "1"]}}, "padding": {"s": "U0FNRQ=="}, "explicit_paddings": {"list": {}}, "use_cudnn_on_gpu": {"b": true}}}, {"name": "PartitionedCall/model_1/tf.math.add_50/Add", "op": "AddV2", "input": ["PartitionedCall/model_1/tf.nn.convolution_44/convolution", "21515"], "attr": {"T": {"type": "DT_FLOAT"}}}, {"name": "PartitionedCall/model_1/tf.math.sigmoid_42/Sigmoid", "op": "Sigmoid", "input": ["PartitionedCall/model_1/tf.math.add_50/Add"], "attr": {"T": {"type": "DT_FLOAT"}}}, {"name": "PartitionedCall/model_1/tf.math.multiply_140/Mul", "op": "Mul", "input": ["PartitionedCall/model_1/tf.math.add_50/Add", "PartitionedCall/model_1/tf.math.sigmoid_42/Sigmoid"], "attr": {"T": {"type": "DT_FLOAT"}}}, {"name": "PartitionedCall/model_1/tf.concat_11/concat", "op": "ConcatV2", "input": ["PartitionedCall/model_1/tf.strided_slice_12/StridedSlice", "PartitionedCall/model_1/tf.strided_slice_13/StridedSlice", "PartitionedCall/model_1/tf.math.multiply_140/Mul", "PartitionedCall/model_1/tf.concat_11/concat/axis"], "attr": {"N": {"i": "3"}, "T": {"type": "DT_FLOAT"}, "Tidx": {"type": "DT_INT32"}}}, {"name": "PartitionedCall/model_1/tf.nn.convolution_45/convolution", "op": "Conv2D", "input": ["PartitionedCall/model_1/tf.concat_11/concat", "21521"], "device": "/device:CPU:0", "attr": {"T": {"type": "DT_FLOAT"}, "data_format": {"s": "TkhXQw=="}, "explicit_paddings": {"list": {}}, "padding": {"s": "U0FNRQ=="}, "strides": {"list": {"i": ["1", "1", "1", "1"]}}, "dilations": {"list": {"i": ["1", "1", "1", "1"]}}, "use_cudnn_on_gpu": {"b": true}}}, {"name": "PartitionedCall/model_1/tf.math.add_51/Add", "op": "AddV2", "input": ["PartitionedCall/model_1/tf.nn.convolution_45/convolution", "21523"], "attr": {"T": {"type": "DT_FLOAT"}}}, {"name": "PartitionedCall/model_1/tf.math.sigmoid_43/Sigmoid", "op": "Sigmoid", "input": ["PartitionedCall/model_1/tf.math.add_51/Add"], "attr": {"T": {"type": "DT_FLOAT"}}}, {"name": "PartitionedCall/model_1/tf.math.multiply_143/Mul", "op": "Mul", "input": ["PartitionedCall/model_1/tf.math.add_51/Add", "PartitionedCall/model_1/tf.math.sigmoid_43/Sigmoid"], "attr": {"T": {"type": "DT_FLOAT"}}}, {"name": "PartitionedCall/model_1/tf.nn.convolution_47/convolution", "op": "Conv2D", "input": ["PartitionedCall/model_1/tf.math.multiply_143/Mul", "21565"], "device": "/device:CPU:0", "attr": {"strides": {"list": {"i": ["1", "1", "1", "1"]}}, "T": {"type": "DT_FLOAT"}, "data_format": {"s": "TkhXQw=="}, "explicit_paddings": {"list": {}}, "dilations": {"list": {"i": ["1", "1", "1", "1"]}}, "use_cudnn_on_gpu": {"b": true}, "padding": {"s": "U0FNRQ=="}}}, {"name": "PartitionedCall/model_1/tf.nn.convolution_48/convolution", "op": "Conv2D", "input": ["PartitionedCall/model_1/tf.math.multiply_143/Mul", "21563"], "device": "/device:CPU:0", "attr": {"dilations": {"list": {"i": ["1", "1", "1", "1"]}}, "explicit_paddings": {"list": {}}, "T": {"type": "DT_FLOAT"}, "use_cudnn_on_gpu": {"b": true}, "data_format": {"s": "TkhXQw=="}, "padding": {"s": "U0FNRQ=="}, "strides": {"list": {"i": ["1", "1", "1", "1"]}}}}, {"name": "PartitionedCall/model_1/tf.compat.v1.pad_6/Pad", "op": "Pad", "input": ["PartitionedCall/model_1/tf.math.multiply_143/Mul", "21525"], "attr": {"Tpaddings": {"type": "DT_INT32"}, "T": {"type": "DT_FLOAT"}}}, {"name": "PartitionedCall/model_1/tf.math.add_53/Add", "op": "AddV2", "input": ["PartitionedCall/model_1/tf.nn.convolution_47/convolution", "21573"], "attr": {"T": {"type": "DT_FLOAT"}}}, {"name": "PartitionedCall/model_1/tf.math.add_54/Add", "op": "AddV2", "input": ["PartitionedCall/model_1/tf.nn.convolution_48/convolution", "21571"], "attr": {"T": {"type": "DT_FLOAT"}}}, {"name": "PartitionedCall/model_1/tf.nn.convolution_46/convolution", "op": "Conv2D", "input": ["PartitionedCall/model_1/tf.compat.v1.pad_6/Pad", "21527"], "device": "/device:CPU:0", "attr": {"explicit_paddings": {"list": {}}, "T": {"type": "DT_FLOAT"}, "use_cudnn_on_gpu": {"b": true}, "strides": {"list": {"i": ["1", "2", "2", "1"]}}, "data_format": {"s": "TkhXQw=="}, "padding": {"s": "VkFMSUQ="}, "dilations": {"list": {"i": ["1", "1", "1", "1"]}}}}, {"name": "PartitionedCall/model_1/tf.math.sigmoid_45/Sigmoid", "op": "Sigmoid", "input": ["PartitionedCall/model_1/tf.math.add_53/Add"], "attr": {"T": {"type": "DT_FLOAT"}}}, {"name": "PartitionedCall/model_1/tf.math.sigmoid_46/Sigmoid", "op": "Sigmoid", "input": ["PartitionedCall/model_1/tf.math.add_54/Add"], "attr": {"T": {"type": "DT_FLOAT"}}}, {"name": "PartitionedCall/model_1/tf.math.add_52/Add", "op": "AddV2", "input": ["PartitionedCall/model_1/tf.nn.convolution_46/convolution", "21529"], "attr": {"T": {"type": "DT_FLOAT"}}}, {"name": "PartitionedCall/model_1/tf.math.multiply_149/Mul", "op": "Mul", "input": ["PartitionedCall/model_1/tf.math.add_53/Add", "PartitionedCall/model_1/tf.math.sigmoid_45/Sigmoid"], "attr": {"T": {"type": "DT_FLOAT"}}}, {"name": "PartitionedCall/model_1/tf.math.multiply_152/Mul", "op": "Mul", "input": ["PartitionedCall/model_1/tf.math.add_54/Add", "PartitionedCall/model_1/tf.math.sigmoid_46/Sigmoid"], "attr": {"T": {"type": "DT_FLOAT"}}}, {"name": "PartitionedCall/model_1/tf.math.sigmoid_44/Sigmoid", "op": "Sigmoid", "input": ["PartitionedCall/model_1/tf.math.add_52/Add"], "attr": {"T": {"type": "DT_FLOAT"}}}, {"name": "PartitionedCall/model_1/tf.nn.convolution_49/convolution", "op": "Conv2D", "input": ["PartitionedCall/model_1/tf.math.multiply_149/Mul", "21589"], "device": "/device:CPU:0", "attr": {"data_format": {"s": "TkhXQw=="}, "strides": {"list": {"i": ["1", "1", "1", "1"]}}, "dilations": {"list": {"i": ["1", "1", "1", "1"]}}, "explicit_paddings": {"list": {}}, "T": {"type": "DT_FLOAT"}, "use_cudnn_on_gpu": {"b": true}, "padding": {"s": "U0FNRQ=="}}}, {"name": "PartitionedCall/model_1/tf.nn.convolution_50/convolution", "op": "Conv2D", "input": ["PartitionedCall/model_1/tf.math.multiply_152/Mul", "21587"], "device": "/device:CPU:0", "attr": {"explicit_paddings": {"list": {}}, "padding": {"s": "U0FNRQ=="}, "dilations": {"list": {"i": ["1", "1", "1", "1"]}}, "use_cudnn_on_gpu": {"b": true}, "strides": {"list": {"i": ["1", "1", "1", "1"]}}, "T": {"type": "DT_FLOAT"}, "data_format": {"s": "TkhXQw=="}}}, {"name": "PartitionedCall/model_1/tf.math.multiply_146/Mul", "op": "Mul", "input": ["PartitionedCall/model_1/tf.math.add_52/Add", "PartitionedCall/model_1/tf.math.sigmoid_44/Sigmoid"], "attr": {"T": {"type": "DT_FLOAT"}}}, {"name": "PartitionedCall/model_1/tf.math.add_55/Add", "op": "AddV2", "input": ["PartitionedCall/model_1/tf.nn.convolution_49/convolution", "21597"], "attr": {"T": {"type": "DT_FLOAT"}}}, {"name": "PartitionedCall/model_1/tf.math.add_56/Add", "op": "AddV2", "input": ["PartitionedCall/model_1/tf.nn.convolution_50/convolution", "21595"], "attr": {"T": {"type": "DT_FLOAT"}}}, {"name": "PartitionedCall/model_1/tf.concat_12/concat", "op": "ConcatV2", "input": ["PartitionedCall/model_1/tf.math.multiply_146/Mul", "PartitionedCall/model_1/tf.math.multiply_92/Mul", "PartitionedCall/model_1/tf.concat_12/concat/axis"], "attr": {"T": {"type": "DT_FLOAT"}, "Tidx": {"type": "DT_INT32"}, "N": {"i": "2"}}}, {"name": "PartitionedCall/model_1/tf.math.sigmoid_47/Sigmoid", "op": "Sigmoid", "input": ["PartitionedCall/model_1/tf.math.add_55/Add"], "attr": {"T": {"type": "DT_FLOAT"}}}, {"name": "PartitionedCall/model_1/tf.math.sigmoid_48/Sigmoid", "op": "Sigmoid", "input": ["PartitionedCall/model_1/tf.math.add_56/Add"], "attr": {"T": {"type": "DT_FLOAT"}}}, {"name": "PartitionedCall/model_1/tf.nn.convolution_51/convolution", "op": "Conv2D", "input": ["PartitionedCall/model_1/tf.concat_12/concat", "21531"], "device": "/device:CPU:0", "attr": {"padding": {"s": "U0FNRQ=="}, "explicit_paddings": {"list": {}}, "dilations": {"list": {"i": ["1", "1", "1", "1"]}}, "T": {"type": "DT_FLOAT"}, "strides": {"list": {"i": ["1", "1", "1", "1"]}}, "use_cudnn_on_gpu": {"b": true}, "data_format": {"s": "TkhXQw=="}}}, {"name": "PartitionedCall/model_1/tf.math.multiply_155/Mul", "op": "Mul", "input": ["PartitionedCall/model_1/tf.math.add_55/Add", "PartitionedCall/model_1/tf.math.sigmoid_47/Sigmoid"], "attr": {"T": {"type": "DT_FLOAT"}}}, {"name": "PartitionedCall/model_1/tf.math.multiply_158/Mul", "op": "Mul", "input": ["PartitionedCall/model_1/tf.math.add_56/Add", "PartitionedCall/model_1/tf.math.sigmoid_48/Sigmoid"], "attr": {"T": {"type": "DT_FLOAT"}}}, {"name": "PartitionedCall/model_1/tf.math.add_57/Add", "op": "AddV2", "input": ["PartitionedCall/model_1/tf.nn.convolution_51/convolution", "21533"], "attr": {"T": {"type": "DT_FLOAT"}}}, {"name": "PartitionedCall/model_1/tf.nn.convolution_52/convolution", "op": "Conv2D", "input": ["PartitionedCall/model_1/tf.math.multiply_155/Mul", "21613"], "device": "/device:CPU:0", "attr": {"T": {"type": "DT_FLOAT"}, "explicit_paddings": {"list": {}}, "use_cudnn_on_gpu": {"b": true}, "padding": {"s": "U0FNRQ=="}, "data_format": {"s": "TkhXQw=="}, "strides": {"list": {"i": ["1", "1", "1", "1"]}}, "dilations": {"list": {"i": ["1", "1", "1", "1"]}}}}, {"name": "PartitionedCall/model_1/tf.nn.convolution_53/convolution", "op": "Conv2D", "input": ["PartitionedCall/model_1/tf.math.multiply_158/Mul", "21611"], "device": "/device:CPU:0", "attr": {"data_format": {"s": "TkhXQw=="}, "T": {"type": "DT_FLOAT"}, "strides": {"list": {"i": ["1", "1", "1", "1"]}}, "dilations": {"list": {"i": ["1", "1", "1", "1"]}}, "explicit_paddings": {"list": {}}, "padding": {"s": "U0FNRQ=="}, "use_cudnn_on_gpu": {"b": true}}}, {"name": "PartitionedCall/model_1/tf.math.sigmoid_49/Sigmoid", "op": "Sigmoid", "input": ["PartitionedCall/model_1/tf.math.add_57/Add"], "attr": {"T": {"type": "DT_FLOAT"}}}, {"name": "PartitionedCall/model_1/tf.math.add_58/Add", "op": "AddV2", "input": ["PartitionedCall/model_1/tf.nn.convolution_52/convolution", "21619"], "attr": {"T": {"type": "DT_FLOAT"}}}, {"name": "PartitionedCall/model_1/tf.math.add_59/Add", "op": "AddV2", "input": ["PartitionedCall/model_1/tf.nn.convolution_53/convolution", "21621"], "attr": {"T": {"type": "DT_FLOAT"}}}, {"name": "PartitionedCall/model_1/tf.math.multiply_161/Mul", "op": "Mul", "input": ["PartitionedCall/model_1/tf.math.add_57/Add", "PartitionedCall/model_1/tf.math.sigmoid_49/Sigmoid"], "attr": {"T": {"type": "DT_FLOAT"}}}, {"name": "PartitionedCall/model_1/tf.concat_13/concat", "op": "ConcatV2", "input": ["PartitionedCall/model_1/tf.math.add_58/Add", "PartitionedCall/model_1/tf.math.add_59/Add", "PartitionedCall/model_1/tf.concat_13/concat/axis"], "attr": {"N": {"i": "2"}, "Tidx": {"type": "DT_INT32"}, "T": {"type": "DT_FLOAT"}}}, {"name": "PartitionedCall/model_1/tf.strided_slice_14/StridedSlice", "op": "StridedSlice", "input": ["PartitionedCall/model_1/tf.math.multiply_161/Mul", "21547", "21549", "PartitionedCall/model_1/tf.strided_slice_14/ones_like"], "attr": {"T": {"type": "DT_FLOAT"}, "new_axis_mask": {"i": "0"}, "Index": {"type": "DT_INT64"}, "shrink_axis_mask": {"i": "0"}, "ellipsis_mask": {"i": "0"}, "begin_mask": {"i": "15"}, "end_mask": {"i": "7"}}}, {"name": "PartitionedCall/model_1/tf.strided_slice_15/StridedSlice", "op": "StridedSlice", "input": ["PartitionedCall/model_1/tf.math.multiply_161/Mul", "21535", "21537", "PartitionedCall/model_1/tf.strided_slice_15/ones_like"], "attr": {"ellipsis_mask": {"i": "0"}, "begin_mask": {"i": "7"}, "T": {"type": "DT_FLOAT"}, "Index": {"type": "DT_INT64"}, "shrink_axis_mask": {"i": "0"}, "new_axis_mask": {"i": "0"}, "end_mask": {"i": "7"}}}, {"name": "PartitionedCall/model_1/tf.compat.v1.transpose_1/transpose", "op": "Transpose", "input": ["PartitionedCall/model_1/tf.concat_13/concat", "PartitionedCall/model_1/tf.compat.v1.transpose_1/transpose/perm"], "attr": {"T": {"type": "DT_FLOAT"}, "Tperm": {"type": "DT_INT32"}}}, {"name": "PartitionedCall/model_1/tf.nn.convolution_54/convolution", "op": "Conv2D", "input": ["PartitionedCall/model_1/tf.strided_slice_15/StridedSlice", "21539"], "device": "/device:CPU:0", "attr": {"padding": {"s": "U0FNRQ=="}, "explicit_paddings": {"list": {}}, "dilations": {"list": {"i": ["1", "1", "1", "1"]}}, "strides": {"list": {"i": ["1", "1", "1", "1"]}}, "use_cudnn_on_gpu": {"b": true}, "data_format": {"s": "TkhXQw=="}, "T": {"type": "DT_FLOAT"}}}, {"name": "PartitionedCall/model_1/tf.reshape_1/Reshape", "op": "Reshape", "input": ["PartitionedCall/model_1/tf.compat.v1.transpose_1/transpose", "PartitionedCall/model_1/tf.reshape_1/Reshape/shape"], "attr": {"Tshape": {"type": "DT_INT32"}, "T": {"type": "DT_FLOAT"}}}, {"name": "PartitionedCall/model_1/tf.math.add_60/Add", "op": "AddV2", "input": ["PartitionedCall/model_1/tf.nn.convolution_54/convolution", "21541"], "attr": {"T": {"type": "DT_FLOAT"}}}, {"name": "PartitionedCall/model_1/tf.math.sigmoid_50/Sigmoid", "op": "Sigmoid", "input": ["PartitionedCall/model_1/tf.math.add_60/Add"], "attr": {"T": {"type": "DT_FLOAT"}}}, {"name": "PartitionedCall/model_1/tf.math.multiply_164/Mul", "op": "Mul", "input": ["PartitionedCall/model_1/tf.math.add_60/Add", "PartitionedCall/model_1/tf.math.sigmoid_50/Sigmoid"], "attr": {"T": {"type": "DT_FLOAT"}}}, {"name": "PartitionedCall/model_1/tf.nn.convolution_55/convolution", "op": "Conv2D", "input": ["PartitionedCall/model_1/tf.math.multiply_164/Mul", "21543"], "device": "/device:CPU:0", "attr": {"data_format": {"s": "TkhXQw=="}, "explicit_paddings": {"list": {}}, "padding": {"s": "U0FNRQ=="}, "strides": {"list": {"i": ["1", "1", "1", "1"]}}, "T": {"type": "DT_FLOAT"}, "dilations": {"list": {"i": ["1", "1", "1", "1"]}}, "use_cudnn_on_gpu": {"b": true}}}, {"name": "PartitionedCall/model_1/tf.math.add_61/Add", "op": "AddV2", "input": ["PartitionedCall/model_1/tf.nn.convolution_55/convolution", "21545"], "attr": {"T": {"type": "DT_FLOAT"}}}, {"name": "PartitionedCall/model_1/tf.math.sigmoid_51/Sigmoid", "op": "Sigmoid", "input": ["PartitionedCall/model_1/tf.math.add_61/Add"], "attr": {"T": {"type": "DT_FLOAT"}}}, {"name": "PartitionedCall/model_1/tf.math.multiply_167/Mul", "op": "Mul", "input": ["PartitionedCall/model_1/tf.math.add_61/Add", "PartitionedCall/model_1/tf.math.sigmoid_51/Sigmoid"], "attr": {"T": {"type": "DT_FLOAT"}}}, {"name": "PartitionedCall/model_1/tf.concat_14/concat", "op": "ConcatV2", "input": ["PartitionedCall/model_1/tf.strided_slice_14/StridedSlice", "PartitionedCall/model_1/tf.strided_slice_15/StridedSlice", "PartitionedCall/model_1/tf.math.multiply_167/Mul", "PartitionedCall/model_1/tf.concat_14/concat/axis"], "attr": {"T": {"type": "DT_FLOAT"}, "N": {"i": "3"}, "Tidx": {"type": "DT_INT32"}}}, {"name": "PartitionedCall/model_1/tf.nn.convolution_56/convolution", "op": "Conv2D", "input": ["PartitionedCall/model_1/tf.concat_14/concat", "21551"], "device": "/device:CPU:0", "attr": {"explicit_paddings": {"list": {}}, "dilations": {"list": {"i": ["1", "1", "1", "1"]}}, "use_cudnn_on_gpu": {"b": true}, "strides": {"list": {"i": ["1", "1", "1", "1"]}}, "data_format": {"s": "TkhXQw=="}, "T": {"type": "DT_FLOAT"}, "padding": {"s": "U0FNRQ=="}}}, {"name": "PartitionedCall/model_1/tf.math.add_62/Add", "op": "AddV2", "input": ["PartitionedCall/model_1/tf.nn.convolution_56/convolution", "21553"], "attr": {"T": {"type": "DT_FLOAT"}}}, {"name": "PartitionedCall/model_1/tf.math.sigmoid_52/Sigmoid", "op": "Sigmoid", "input": ["PartitionedCall/model_1/tf.math.add_62/Add"], "attr": {"T": {"type": "DT_FLOAT"}}}, {"name": "PartitionedCall/model_1/tf.math.multiply_170/Mul", "op": "Mul", "input": ["PartitionedCall/model_1/tf.math.add_62/Add", "PartitionedCall/model_1/tf.math.sigmoid_52/Sigmoid"], "attr": {"T": {"type": "DT_FLOAT"}}}, {"name": "PartitionedCall/model_1/tf.nn.convolution_57/convolution", "op": "Conv2D", "input": ["PartitionedCall/model_1/tf.math.multiply_170/Mul", "21557"], "device": "/device:CPU:0", "attr": {"T": {"type": "DT_FLOAT"}, "explicit_paddings": {"list": {}}, "dilations": {"list": {"i": ["1", "1", "1", "1"]}}, "strides": {"list": {"i": ["1", "1", "1", "1"]}}, "use_cudnn_on_gpu": {"b": true}, "data_format": {"s": "TkhXQw=="}, "padding": {"s": "U0FNRQ=="}}}, {"name": "PartitionedCall/model_1/tf.nn.convolution_58/convolution", "op": "Conv2D", "input": ["PartitionedCall/model_1/tf.math.multiply_170/Mul", "21555"], "device": "/device:CPU:0", "attr": {"use_cudnn_on_gpu": {"b": true}, "T": {"type": "DT_FLOAT"}, "data_format": {"s": "TkhXQw=="}, "strides": {"list": {"i": ["1", "1", "1", "1"]}}, "dilations": {"list": {"i": ["1", "1", "1", "1"]}}, "explicit_paddings": {"list": {}}, "padding": {"s": "U0FNRQ=="}}}, {"name": "PartitionedCall/model_1/tf.math.add_63/Add", "op": "AddV2", "input": ["PartitionedCall/model_1/tf.nn.convolution_57/convolution", "21561"], "attr": {"T": {"type": "DT_FLOAT"}}}, {"name": "PartitionedCall/model_1/tf.math.add_64/Add", "op": "AddV2", "input": ["PartitionedCall/model_1/tf.nn.convolution_58/convolution", "21559"], "attr": {"T": {"type": "DT_FLOAT"}}}, {"name": "PartitionedCall/model_1/tf.math.sigmoid_53/Sigmoid", "op": "Sigmoid", "input": ["PartitionedCall/model_1/tf.math.add_63/Add"], "attr": {"T": {"type": "DT_FLOAT"}}}, {"name": "PartitionedCall/model_1/tf.math.sigmoid_54/Sigmoid", "op": "Sigmoid", "input": ["PartitionedCall/model_1/tf.math.add_64/Add"], "attr": {"T": {"type": "DT_FLOAT"}}}, {"name": "PartitionedCall/model_1/tf.math.multiply_173/Mul", "op": "Mul", "input": ["PartitionedCall/model_1/tf.math.add_63/Add", "PartitionedCall/model_1/tf.math.sigmoid_53/Sigmoid"], "attr": {"T": {"type": "DT_FLOAT"}}}, {"name": "PartitionedCall/model_1/tf.math.multiply_176/Mul", "op": "Mul", "input": ["PartitionedCall/model_1/tf.math.add_64/Add", "PartitionedCall/model_1/tf.math.sigmoid_54/Sigmoid"], "attr": {"T": {"type": "DT_FLOAT"}}}, {"name": "PartitionedCall/model_1/tf.nn.convolution_59/convolution", "op": "Conv2D", "input": ["PartitionedCall/model_1/tf.math.multiply_173/Mul", "21581"], "device": "/device:CPU:0", "attr": {"T": {"type": "DT_FLOAT"}, "padding": {"s": "U0FNRQ=="}, "data_format": {"s": "TkhXQw=="}, "strides": {"list": {"i": ["1", "1", "1", "1"]}}, "explicit_paddings": {"list": {}}, "dilations": {"list": {"i": ["1", "1", "1", "1"]}}, "use_cudnn_on_gpu": {"b": true}}}, {"name": "PartitionedCall/model_1/tf.nn.convolution_60/convolution", "op": "Conv2D", "input": ["PartitionedCall/model_1/tf.math.multiply_176/Mul", "21579"], "device": "/device:CPU:0", "attr": {"padding": {"s": "U0FNRQ=="}, "dilations": {"list": {"i": ["1", "1", "1", "1"]}}, "explicit_paddings": {"list": {}}, "strides": {"list": {"i": ["1", "1", "1", "1"]}}, "T": {"type": "DT_FLOAT"}, "use_cudnn_on_gpu": {"b": true}, "data_format": {"s": "TkhXQw=="}}}, {"name": "PartitionedCall/model_1/tf.math.add_65/Add", "op": "AddV2", "input": ["PartitionedCall/model_1/tf.nn.convolution_59/convolution", "21585"], "attr": {"T": {"type": "DT_FLOAT"}}}, {"name": "PartitionedCall/model_1/tf.math.add_66/Add", "op": "AddV2", "input": ["PartitionedCall/model_1/tf.nn.convolution_60/convolution", "21583"], "attr": {"T": {"type": "DT_FLOAT"}}}, {"name": "PartitionedCall/model_1/tf.math.sigmoid_55/Sigmoid", "op": "Sigmoid", "input": ["PartitionedCall/model_1/tf.math.add_65/Add"], "attr": {"T": {"type": "DT_FLOAT"}}}, {"name": "PartitionedCall/model_1/tf.math.sigmoid_56/Sigmoid", "op": "Sigmoid", "input": ["PartitionedCall/model_1/tf.math.add_66/Add"], "attr": {"T": {"type": "DT_FLOAT"}}}, {"name": "PartitionedCall/model_1/tf.math.multiply_179/Mul", "op": "Mul", "input": ["PartitionedCall/model_1/tf.math.add_65/Add", "PartitionedCall/model_1/tf.math.sigmoid_55/Sigmoid"], "attr": {"T": {"type": "DT_FLOAT"}}}, {"name": "PartitionedCall/model_1/tf.math.multiply_182/Mul", "op": "Mul", "input": ["PartitionedCall/model_1/tf.math.add_66/Add", "PartitionedCall/model_1/tf.math.sigmoid_56/Sigmoid"], "attr": {"T": {"type": "DT_FLOAT"}}}, {"name": "PartitionedCall/model_1/tf.nn.convolution_61/convolution", "op": "Conv2D", "input": ["PartitionedCall/model_1/tf.math.multiply_179/Mul", "21605"], "device": "/device:CPU:0", "attr": {"explicit_paddings": {"list": {}}, "T": {"type": "DT_FLOAT"}, "use_cudnn_on_gpu": {"b": true}, "strides": {"list": {"i": ["1", "1", "1", "1"]}}, "data_format": {"s": "TkhXQw=="}, "padding": {"s": "U0FNRQ=="}, "dilations": {"list": {"i": ["1", "1", "1", "1"]}}}}, {"name": "PartitionedCall/model_1/tf.nn.convolution_62/convolution", "op": "Conv2D", "input": ["PartitionedCall/model_1/tf.math.multiply_182/Mul", "21603"], "device": "/device:CPU:0", "attr": {"padding": {"s": "U0FNRQ=="}, "data_format": {"s": "TkhXQw=="}, "T": {"type": "DT_FLOAT"}, "strides": {"list": {"i": ["1", "1", "1", "1"]}}, "dilations": {"list": {"i": ["1", "1", "1", "1"]}}, "explicit_paddings": {"list": {}}, "use_cudnn_on_gpu": {"b": true}}}, {"name": "PartitionedCall/model_1/tf.math.add_67/Add", "op": "AddV2", "input": ["PartitionedCall/model_1/tf.nn.convolution_61/convolution", "21609"], "attr": {"T": {"type": "DT_FLOAT"}}}, {"name": "PartitionedCall/model_1/tf.math.add_68/Add", "op": "AddV2", "input": ["PartitionedCall/model_1/tf.nn.convolution_62/convolution", "21607"], "attr": {"T": {"type": "DT_FLOAT"}}}, {"name": "PartitionedCall/model_1/tf.concat_592/concat", "op": "ConcatV2", "input": ["PartitionedCall/model_1/tf.math.add_67/Add", "PartitionedCall/model_1/tf.math.add_68/Add", "PartitionedCall/model_1/tf.concat_592/concat/axis"], "attr": {"T": {"type": "DT_FLOAT"}, "N": {"i": "2"}, "Tidx": {"type": "DT_INT32"}}}, {"name": "PartitionedCall/model_1/tf.compat.v1.transpose_1156/transpose", "op": "Transpose", "input": ["PartitionedCall/model_1/tf.concat_592/concat", "PartitionedCall/model_1/tf.compat.v1.transpose_1156/transpose/perm"], "attr": {"T": {"type": "DT_FLOAT"}, "Tperm": {"type": "DT_INT32"}}}, {"name": "PartitionedCall/model_1/tf.reshape_2/Reshape", "op": "Reshape", "input": ["PartitionedCall/model_1/tf.compat.v1.transpose_1156/transpose", "PartitionedCall/model_1/tf.reshape_2/Reshape/shape"], "attr": {"Tshape": {"type": "DT_INT32"}, "T": {"type": "DT_FLOAT"}}}, {"name": "PartitionedCall/model_1/tf.concat_593/concat", "op": "ConcatV2", "input": ["PartitionedCall/model_1/tf.reshape/Reshape", "PartitionedCall/model_1/tf.reshape_1/Reshape", "PartitionedCall/model_1/tf.reshape_2/Reshape", "PartitionedCall/model_1/tf.concat_593/concat/axis"], "attr": {"T": {"type": "DT_FLOAT"}, "N": {"i": "3"}, "Tidx": {"type": "DT_INT32"}}}, {"name": "PartitionedCall/model_1/tf.strided_slice_16/StridedSlice", "op": "StridedSlice", "input": ["PartitionedCall/model_1/tf.concat_593/concat", "21627", "21629", "PartitionedCall/model_1/tf.strided_slice_16/StridedSlice/strides"], "attr": {"Index": {"type": "DT_INT64"}, "T": {"type": "DT_FLOAT"}, "begin_mask": {"i": "7"}, "ellipsis_mask": {"i": "0"}, "new_axis_mask": {"i": "0"}, "end_mask": {"i": "5"}, "shrink_axis_mask": {"i": "0"}}}, {"name": "PartitionedCall/model_1/tf.strided_slice_17/StridedSlice", "op": "StridedSlice", "input": ["PartitionedCall/model_1/tf.concat_593/concat", "21647", "21649", "PartitionedCall/model_1/tf.strided_slice_17/StridedSlice/strides"], "attr": {"shrink_axis_mask": {"i": "0"}, "T": {"type": "DT_FLOAT"}, "ellipsis_mask": {"i": "0"}, "new_axis_mask": {"i": "0"}, "begin_mask": {"i": "5"}, "end_mask": {"i": "5"}, "Index": {"type": "DT_INT64"}}}, {"name": "PartitionedCall/model_1/tf.reshape_3/Reshape", "op": "Reshape", "input": ["PartitionedCall/model_1/tf.strided_slice_16/StridedSlice", "PartitionedCall/model_1/tf.reshape_3/Reshape/shape"], "attr": {"Tshape": {"type": "DT_INT32"}, "T": {"type": "DT_FLOAT"}}}, {"name": "PartitionedCall/model_1/tf.math.sigmoid_57/Sigmoid", "op": "Sigmoid", "input": ["PartitionedCall/model_1/tf.strided_slice_17/StridedSlice"], "attr": {"T": {"type": "DT_FLOAT"}}}, {"name": "PartitionedCall/model_1/tf.compat.v1.transpose_1158/transpose", "op": "Transpose", "input": ["PartitionedCall/model_1/tf.reshape_3/Reshape", "PartitionedCall/model_1/tf.compat.v1.transpose_1158/transpose/perm"], "attr": {"T": {"type": "DT_FLOAT"}, "Tperm": {"type": "DT_INT32"}}}, {"name": "PartitionedCall/model_1/tf.compat.v1.transpose_1159/transpose", "op": "Transpose", "input": ["PartitionedCall/model_1/tf.compat.v1.transpose_1158/transpose", "PartitionedCall/model_1/tf.compat.v1.transpose_1159/transpose/perm"], "attr": {"Tperm": {"type": "DT_INT32"}, "T": {"type": "DT_FLOAT"}}}, {"name": "PartitionedCall/model_1/tf.nn.softmax//model.22/dfl/Softmax", "op": "Softmax", "input": ["PartitionedCall/model_1/tf.compat.v1.transpose_1159/transpose"], "attr": {"T": {"type": "DT_FLOAT"}}}, {"name": "PartitionedCall/model_1/tf.nn.convolution_63/convolution", "op": "Conv2D", "input": ["PartitionedCall/model_1/tf.nn.softmax//model.22/dfl/Softmax", "21631"], "device": "/device:CPU:0", "attr": {"strides": {"list": {"i": ["1", "1", "1", "1"]}}, "dilations": {"list": {"i": ["1", "1", "1", "1"]}}, "explicit_paddings": {"list": {}}, "padding": {"s": "U0FNRQ=="}, "use_cudnn_on_gpu": {"b": true}, "T": {"type": "DT_FLOAT"}, "data_format": {"s": "TkhXQw=="}}}, {"name": "PartitionedCall/model_1/tf.compat.v1.transpose_1162/transpose", "op": "Transpose", "input": ["PartitionedCall/model_1/tf.nn.convolution_63/convolution", "PartitionedCall/model_1/tf.compat.v1.transpose_1162/transpose/perm"], "attr": {"T": {"type": "DT_FLOAT"}, "Tperm": {"type": "DT_INT32"}}}, {"name": "PartitionedCall/model_1/tf.reshape_4/Reshape", "op": "Reshape", "input": ["PartitionedCall/model_1/tf.compat.v1.transpose_1162/transpose", "PartitionedCall/model_1/tf.reshape_4/Reshape/shape"], "attr": {"Tshape": {"type": "DT_INT32"}, "T": {"type": "DT_FLOAT"}}}, {"name": "PartitionedCall/model_1/tf.strided_slice_19/StridedSlice", "op": "StridedSlice", "input": ["PartitionedCall/model_1/tf.reshape_4/Reshape", "21633", "21635", "PartitionedCall/model_1/tf.strided_slice_19/ones_like"], "attr": {"ellipsis_mask": {"i": "0"}, "Index": {"type": "DT_INT64"}, "new_axis_mask": {"i": "0"}, "end_mask": {"i": "5"}, "shrink_axis_mask": {"i": "0"}, "T": {"type": "DT_FLOAT"}, "begin_mask": {"i": "5"}}}, {"name": "PartitionedCall/model_1/tf.strided_slice_18/StridedSlice", "op": "StridedSlice", "input": ["PartitionedCall/model_1/tf.reshape_4/Reshape", "21637", "21639", "PartitionedCall/model_1/tf.strided_slice_18/ones_like"], "attr": {"end_mask": {"i": "5"}, "begin_mask": {"i": "7"}, "shrink_axis_mask": {"i": "0"}, "Index": {"type": "DT_INT64"}, "T": {"type": "DT_FLOAT"}, "ellipsis_mask": {"i": "0"}, "new_axis_mask": {"i": "0"}}}, {"name": "PartitionedCall/model_1/tf.math.add_69/Add", "op": "AddV2", "input": ["21641", "PartitionedCall/model_1/tf.strided_slice_19/StridedSlice"], "attr": {"T": {"type": "DT_FLOAT"}}}, {"name": "PartitionedCall/model_1/tf.math.subtract/Sub", "op": "Sub", "input": ["21643", "PartitionedCall/model_1/tf.strided_slice_18/StridedSlice"], "attr": {"T": {"type": "DT_FLOAT"}}}, {"name": "PartitionedCall/model_1/tf.math.add_70/Add", "op": "AddV2", "input": ["PartitionedCall/model_1/tf.math.subtract/Sub", "PartitionedCall/model_1/tf.math.add_69/Add"], "attr": {"T": {"type": "DT_FLOAT"}}}, {"name": "PartitionedCall/model_1/tf.math.subtract_1/Sub", "op": "Sub", "input": ["PartitionedCall/model_1/tf.math.add_69/Add", "PartitionedCall/model_1/tf.math.subtract/Sub"], "attr": {"T": {"type": "DT_FLOAT"}}}, {"name": "PartitionedCall/model_1/tf.math.divide/truediv", "op": "Mul", "input": ["PartitionedCall/model_1/tf.math.add_70/Add", "ConstantFolding/PartitionedCall/model_1/tf.math.divide/truediv_recip"], "attr": {"T": {"type": "DT_FLOAT"}}}, {"name": "PartitionedCall/model_1/tf.concat_594/concat", "op": "ConcatV2", "input": ["PartitionedCall/model_1/tf.math.divide/truediv", "PartitionedCall/model_1/tf.math.subtract_1/Sub", "PartitionedCall/model_1/tf.concat_594/concat/axis"], "attr": {"Tidx": {"type": "DT_INT32"}, "T": {"type": "DT_FLOAT"}, "N": {"i": "2"}}}, {"name": "PartitionedCall/model_1/tf.math.multiply_195/Mul", "op": "Mul", "input": ["PartitionedCall/model_1/tf.concat_594/concat", "PartitionedCall/model_1/tf.math.multiply_195/Mul/y"], "attr": {"T": {"type": "DT_FLOAT"}}}, {"name": "PartitionedCall/model_1/output0/concat", "op": "ConcatV2", "input": ["PartitionedCall/model_1/tf.math.multiply_195/Mul", "PartitionedCall/model_1/tf.math.sigmoid_57/Sigmoid", "PartitionedCall/model_1/output0/concat/axis"], "attr": {"Tidx": {"type": "DT_INT32"}, "T": {"type": "DT_FLOAT"}, "N": {"i": "2"}}}, {"name": "Identity", "op": "Identity", "input": ["PartitionedCall/model_1/output0/concat"], "attr": {"T": {"type": "DT_FLOAT"}}}], "library": {}, "versions": {"producer": 1395}}, "weightsManifest": [{"paths": ["group1-shard1of3.bin", "group1-shard2of3.bin", "group1-shard3of3.bin"], "weights": [{"name": "ConstantFolding/PartitionedCall/model_1/tf.math.divide/truediv_recip", "shape": [1, 1, 1], "dtype": "float32"}, {"name": "21641", "shape": [1, 2, 8400], "dtype": "float32"}, {"name": "21633", "shape": [3], "dtype": "int32"}, {"name": "21635", "shape": [3], "dtype": "int32"}, {"name": "PartitionedCall/model_1/tf.strided_slice_19/ones_like", "shape": [3], "dtype": "int32"}, {"name": "21643", "shape": [1, 2, 8400], "dtype": "float32"}, {"name": "21627", "shape": [3], "dtype": "int32"}, {"name": "21629", "shape": [3], "dtype": "int32"}, {"name": "PartitionedCall/model_1/tf.strided_slice_16/StridedSlice/strides", "shape": [3], "dtype": "int32"}, {"name": "PartitionedCall/model_1/tf.reshape_3/Reshape/shape", "shape": [4], "dtype": "int32"}, {"name": "PartitionedCall/model_1/tf.compat.v1.transpose_1158/transpose/perm", "shape": [4], "dtype": "int32"}, {"name": "PartitionedCall/model_1/tf.compat.v1.transpose_1159/transpose/perm", "shape": [4], "dtype": "int32"}, {"name": "21631", "shape": [1, 1, 16, 1], "dtype": "float32"}, {"name": "PartitionedCall/model_1/tf.compat.v1.transpose_1162/transpose/perm", "shape": [4], "dtype": "int32"}, {"name": "PartitionedCall/model_1/tf.reshape_4/Reshape/shape", "shape": [3], "dtype": "int32"}, {"name": "21637", "shape": [3], "dtype": "int32"}, {"name": "21639", "shape": [3], "dtype": "int32"}, {"name": "PartitionedCall/model_1/tf.strided_slice_18/ones_like", "shape": [3], "dtype": "int32"}, {"name": "PartitionedCall/model_1/tf.concat_594/concat/axis", "shape": [], "dtype": "int32"}, {"name": "PartitionedCall/model_1/tf.math.multiply_195/Mul/y", "shape": [1, 1, 8400], "dtype": "float32"}, {"name": "21569", "shape": [3, 3, 64, 64], "dtype": "float32"}, {"name": "21577", "shape": [64], "dtype": "float32"}, {"name": "21593", "shape": [3, 3, 64, 64], "dtype": "float32"}, {"name": "21601", "shape": [64], "dtype": "float32"}, {"name": "21617", "shape": [1, 1, 64, 64], "dtype": "float32"}, {"name": "21623", "shape": [64], "dtype": "float32"}, {"name": "21567", "shape": [3, 3, 64, 64], "dtype": "float32"}, {"name": "21575", "shape": [64], "dtype": "float32"}, {"name": "21591", "shape": [3, 3, 64, 64], "dtype": "float32"}, {"name": "21599", "shape": [64], "dtype": "float32"}, {"name": "21615", "shape": [1, 1, 64, 20], "dtype": "float32"}, {"name": "21625", "shape": [20], "dtype": "float32"}, {"name": "PartitionedCall/model_1/tf.concat_10/concat/axis", "shape": [], "dtype": "int32"}, {"name": "PartitionedCall/model_1/tf.compat.v1.transpose/transpose/perm", "shape": [4], "dtype": "int32"}, {"name": "PartitionedCall/model_1/tf.reshape/Reshape/shape", "shape": [3], "dtype": "int32"}, {"name": "21565", "shape": [3, 3, 128, 64], "dtype": "float32"}, {"name": "21573", "shape": [64], "dtype": "float32"}, {"name": "21589", "shape": [3, 3, 64, 64], "dtype": "float32"}, {"name": "21597", "shape": [64], "dtype": "float32"}, {"name": "21613", "shape": [1, 1, 64, 64], "dtype": "float32"}, {"name": "21619", "shape": [64], "dtype": "float32"}, {"name": "21563", "shape": [3, 3, 128, 64], "dtype": "float32"}, {"name": "21571", "shape": [64], "dtype": "float32"}, {"name": "21587", "shape": [3, 3, 64, 64], "dtype": "float32"}, {"name": "21595", "shape": [64], "dtype": "float32"}, {"name": "21611", "shape": [1, 1, 64, 20], "dtype": "float32"}, {"name": "21621", "shape": [20], "dtype": "float32"}, {"name": "PartitionedCall/model_1/tf.concat_13/concat/axis", "shape": [], "dtype": "int32"}, {"name": "PartitionedCall/model_1/tf.compat.v1.transpose_1/transpose/perm", "shape": [4], "dtype": "int32"}, {"name": "PartitionedCall/model_1/tf.reshape_1/Reshape/shape", "shape": [3], "dtype": "int32"}, {"name": "21557", "shape": [3, 3, 256, 64], "dtype": "float32"}, {"name": "21561", "shape": [64], "dtype": "float32"}, {"name": "21581", "shape": [3, 3, 64, 64], "dtype": "float32"}, {"name": "21585", "shape": [64], "dtype": "float32"}, {"name": "21605", "shape": [1, 1, 64, 64], "dtype": "float32"}, {"name": "21609", "shape": [64], "dtype": "float32"}, {"name": "21547", "shape": [4], "dtype": "int32"}, {"name": "21549", "shape": [4], "dtype": "int32"}, {"name": "PartitionedCall/model_1/tf.strided_slice_14/ones_like", "shape": [4], "dtype": "int32"}, {"name": "21517", "shape": [4], "dtype": "int32"}, {"name": "21519", "shape": [4], "dtype": "int32"}, {"name": "PartitionedCall/model_1/tf.strided_slice_12/ones_like", "shape": [4], "dtype": "int32"}, {"name": "21487", "shape": [4], "dtype": "int32"}, {"name": "21489", "shape": [4], "dtype": "int32"}, {"name": "PartitionedCall/model_1/tf.strided_slice_10/ones_like", "shape": [4], "dtype": "int32"}, {"name": "PartitionedCall/model_1/lambda_1//model.13/Resize/size", "shape": [2], "dtype": "int32"}, {"name": "PartitionedCall/model_1/tf.concat_7/concat/axis", "shape": [], "dtype": "int32"}, {"name": "21471", "shape": [1, 1, 192, 64], "dtype": "float32"}, {"name": "21473", "shape": [64], "dtype": "float32"}, {"name": "21475", "shape": [4], "dtype": "int32"}, {"name": "21477", "shape": [4], "dtype": "int32"}, {"name": "PartitionedCall/model_1/tf.strided_slice_11/ones_like", "shape": [4], "dtype": "int32"}, {"name": "21479", "shape": [3, 3, 32, 32], "dtype": "float32"}, {"name": "21481", "shape": [32], "dtype": "float32"}, {"name": "21483", "shape": [3, 3, 32, 32], "dtype": "float32"}, {"name": "21485", "shape": [32], "dtype": "float32"}, {"name": "PartitionedCall/model_1/tf.concat_8/concat/axis", "shape": [], "dtype": "int32"}, {"name": "21491", "shape": [1, 1, 96, 64], "dtype": "float32"}, {"name": "21493", "shape": [64], "dtype": "float32"}, {"name": "21495", "shape": [4, 2], "dtype": "int32"}, {"name": "21497", "shape": [3, 3, 64, 64], "dtype": "float32"}, {"name": "21499", "shape": [64], "dtype": "float32"}, {"name": "21463", "shape": [4], "dtype": "int32"}, {"name": "21465", "shape": [4], "dtype": "int32"}, {"name": "PartitionedCall/model_1/tf.strided_slice_8/ones_like", "shape": [4], "dtype": "int32"}, {"name": "PartitionedCall/model_1/lambda//model.10/Resize/size", "shape": [2], "dtype": "int32"}, {"name": "PartitionedCall/model_1/tf.concat_5/concat/axis", "shape": [], "dtype": "int32"}, {"name": "21447", "shape": [1, 1, 384, 128], "dtype": "float32"}, {"name": "21449", "shape": [128], "dtype": "float32"}, {"name": "21451", "shape": [4], "dtype": "int32"}, {"name": "21453", "shape": [4], "dtype": "int32"}, {"name": "PartitionedCall/model_1/tf.strided_slice_9/ones_like", "shape": [4], "dtype": "int32"}, {"name": "21455", "shape": [3, 3, 64, 64], "dtype": "float32"}, {"name": "21457", "shape": [64], "dtype": "float32"}, {"name": "21459", "shape": [3, 3, 64, 64], "dtype": "float32"}, {"name": "21461", "shape": [64], "dtype": "float32"}, {"name": "PartitionedCall/model_1/tf.concat_6/concat/axis", "shape": [], "dtype": "int32"}, {"name": "21467", "shape": [1, 1, 192, 128], "dtype": "float32"}, {"name": "21469", "shape": [128], "dtype": "float32"}, {"name": "PartitionedCall/model_1/tf.concat_9/concat/axis", "shape": [], "dtype": "int32"}, {"name": "21501", "shape": [1, 1, 192, 128], "dtype": "float32"}, {"name": "21503", "shape": [128], "dtype": "float32"}, {"name": "21505", "shape": [4], "dtype": "int32"}, {"name": "21507", "shape": [4], "dtype": "int32"}, {"name": "PartitionedCall/model_1/tf.strided_slice_13/ones_like", "shape": [4], "dtype": "int32"}, {"name": "21509", "shape": [3, 3, 64, 64], "dtype": "float32"}, {"name": "21511", "shape": [64], "dtype": "float32"}, {"name": "21513", "shape": [3, 3, 64, 64], "dtype": "float32"}, {"name": "21515", "shape": [64], "dtype": "float32"}, {"name": "PartitionedCall/model_1/tf.concat_11/concat/axis", "shape": [], "dtype": "int32"}, {"name": "21521", "shape": [1, 1, 192, 128], "dtype": "float32"}, {"name": "21523", "shape": [128], "dtype": "float32"}, {"name": "21525", "shape": [4, 2], "dtype": "int32"}, {"name": "21527", "shape": [3, 3, 128, 128], "dtype": "float32"}, {"name": "21529", "shape": [128], "dtype": "float32"}, {"name": "21431", "shape": [4], "dtype": "int32"}, {"name": "21433", "shape": [4], "dtype": "int32"}, {"name": "PartitionedCall/model_1/tf.strided_slice_6/ones_like", "shape": [4], "dtype": "int32"}, {"name": "21401", "shape": [4], "dtype": "int32"}, {"name": "21403", "shape": [4], "dtype": "int32"}, {"name": "PartitionedCall/model_1/tf.strided_slice_4/ones_like", "shape": [4], "dtype": "int32"}, {"name": "21363", "shape": [4], "dtype": "int32"}, {"name": "21365", "shape": [4], "dtype": "int32"}, {"name": "PartitionedCall/model_1/tf.strided_slice_2/ones_like", "shape": [4], "dtype": "int32"}, {"name": "21325", "shape": [4], "dtype": "int32"}, {"name": "21327", "shape": [4], "dtype": "int32"}, {"name": "PartitionedCall/model_1/tf.strided_slice/ones_like", "shape": [4], "dtype": "int32"}, {"name": "21297", "shape": [4, 2], "dtype": "int32"}, {"name": "21299", "shape": [3, 3, 3, 16], "dtype": "float32"}, {"name": "21301", "shape": [16], "dtype": "float32"}, {"name": "21303", "shape": [4, 2], "dtype": "int32"}, {"name": "21305", "shape": [3, 3, 16, 32], "dtype": "float32"}, {"name": "21307", "shape": [32], "dtype": "float32"}, {"name": "21309", "shape": [1, 1, 32, 32], "dtype": "float32"}, {"name": "21311", "shape": [32], "dtype": "float32"}, {"name": "21313", "shape": [4], "dtype": "int32"}, {"name": "21315", "shape": [4], "dtype": "int32"}, {"name": "PartitionedCall/model_1/tf.strided_slice_1/ones_like", "shape": [4], "dtype": "int32"}, {"name": "21317", "shape": [3, 3, 16, 16], "dtype": "float32"}, {"name": "21319", "shape": [16], "dtype": "float32"}, {"name": "21321", "shape": [3, 3, 16, 16], "dtype": "float32"}, {"name": "21323", "shape": [16], "dtype": "float32"}, {"name": "PartitionedCall/model_1/tf.concat/concat/axis", "shape": [], "dtype": "int32"}, {"name": "21329", "shape": [1, 1, 48, 32], "dtype": "float32"}, {"name": "21331", "shape": [32], "dtype": "float32"}, {"name": "21333", "shape": [4, 2], "dtype": "int32"}, {"name": "21335", "shape": [3, 3, 32, 64], "dtype": "float32"}, {"name": "21337", "shape": [64], "dtype": "float32"}, {"name": "21339", "shape": [1, 1, 64, 64], "dtype": "float32"}, {"name": "21341", "shape": [64], "dtype": "float32"}, {"name": "21343", "shape": [4], "dtype": "int32"}, {"name": "21345", "shape": [4], "dtype": "int32"}, {"name": "PartitionedCall/model_1/tf.strided_slice_3/ones_like", "shape": [4], "dtype": "int32"}, {"name": "21347", "shape": [3, 3, 32, 32], "dtype": "float32"}, {"name": "21349", "shape": [32], "dtype": "float32"}, {"name": "21351", "shape": [3, 3, 32, 32], "dtype": "float32"}, {"name": "21353", "shape": [32], "dtype": "float32"}, {"name": "21355", "shape": [3, 3, 32, 32], "dtype": "float32"}, {"name": "21357", "shape": [32], "dtype": "float32"}, {"name": "21359", "shape": [3, 3, 32, 32], "dtype": "float32"}, {"name": "21361", "shape": [32], "dtype": "float32"}, {"name": "PartitionedCall/model_1/tf.concat_1/concat/axis", "shape": [], "dtype": "int32"}, {"name": "21367", "shape": [1, 1, 128, 64], "dtype": "float32"}, {"name": "21369", "shape": [64], "dtype": "float32"}, {"name": "21371", "shape": [4, 2], "dtype": "int32"}, {"name": "21373", "shape": [3, 3, 64, 128], "dtype": "float32"}, {"name": "21375", "shape": [128], "dtype": "float32"}, {"name": "21377", "shape": [1, 1, 128, 128], "dtype": "float32"}, {"name": "21379", "shape": [128], "dtype": "float32"}, {"name": "21381", "shape": [4], "dtype": "int32"}, {"name": "21383", "shape": [4], "dtype": "int32"}, {"name": "PartitionedCall/model_1/tf.strided_slice_5/ones_like", "shape": [4], "dtype": "int32"}, {"name": "21385", "shape": [3, 3, 64, 64], "dtype": "float32"}, {"name": "21387", "shape": [64], "dtype": "float32"}, {"name": "21389", "shape": [3, 3, 64, 64], "dtype": "float32"}, {"name": "21391", "shape": [64], "dtype": "float32"}, {"name": "21393", "shape": [3, 3, 64, 64], "dtype": "float32"}, {"name": "21395", "shape": [64], "dtype": "float32"}, {"name": "21397", "shape": [3, 3, 64, 64], "dtype": "float32"}, {"name": "21399", "shape": [64], "dtype": "float32"}, {"name": "PartitionedCall/model_1/tf.concat_2/concat/axis", "shape": [], "dtype": "int32"}, {"name": "21405", "shape": [1, 1, 256, 128], "dtype": "float32"}, {"name": "21407", "shape": [128], "dtype": "float32"}, {"name": "21409", "shape": [4, 2], "dtype": "int32"}, {"name": "21411", "shape": [3, 3, 128, 256], "dtype": "float32"}, {"name": "21413", "shape": [256], "dtype": "float32"}, {"name": "21415", "shape": [1, 1, 256, 256], "dtype": "float32"}, {"name": "21417", "shape": [256], "dtype": "float32"}, {"name": "21419", "shape": [4], "dtype": "int32"}, {"name": "21421", "shape": [4], "dtype": "int32"}, {"name": "PartitionedCall/model_1/tf.strided_slice_7/ones_like", "shape": [4], "dtype": "int32"}, {"name": "21423", "shape": [3, 3, 128, 128], "dtype": "float32"}, {"name": "21425", "shape": [128], "dtype": "float32"}, {"name": "21427", "shape": [3, 3, 128, 128], "dtype": "float32"}, {"name": "21429", "shape": [128], "dtype": "float32"}, {"name": "PartitionedCall/model_1/tf.concat_3/concat/axis", "shape": [], "dtype": "int32"}, {"name": "21435", "shape": [1, 1, 384, 256], "dtype": "float32"}, {"name": "21437", "shape": [256], "dtype": "float32"}, {"name": "21439", "shape": [1, 1, 256, 128], "dtype": "float32"}, {"name": "21441", "shape": [128], "dtype": "float32"}, {"name": "PartitionedCall/model_1/tf.concat_4/concat/axis", "shape": [], "dtype": "int32"}, {"name": "21443", "shape": [1, 1, 512, 256], "dtype": "float32"}, {"name": "21445", "shape": [256], "dtype": "float32"}, {"name": "PartitionedCall/model_1/tf.concat_12/concat/axis", "shape": [], "dtype": "int32"}, {"name": "21531", "shape": [1, 1, 384, 256], "dtype": "float32"}, {"name": "21533", "shape": [256], "dtype": "float32"}, {"name": "21535", "shape": [4], "dtype": "int32"}, {"name": "21537", "shape": [4], "dtype": "int32"}, {"name": "PartitionedCall/model_1/tf.strided_slice_15/ones_like", "shape": [4], "dtype": "int32"}, {"name": "21539", "shape": [3, 3, 128, 128], "dtype": "float32"}, {"name": "21541", "shape": [128], "dtype": "float32"}, {"name": "21543", "shape": [3, 3, 128, 128], "dtype": "float32"}, {"name": "21545", "shape": [128], "dtype": "float32"}, {"name": "PartitionedCall/model_1/tf.concat_14/concat/axis", "shape": [], "dtype": "int32"}, {"name": "21551", "shape": [1, 1, 384, 256], "dtype": "float32"}, {"name": "21553", "shape": [256], "dtype": "float32"}, {"name": "21555", "shape": [3, 3, 256, 64], "dtype": "float32"}, {"name": "21559", "shape": [64], "dtype": "float32"}, {"name": "21579", "shape": [3, 3, 64, 64], "dtype": "float32"}, {"name": "21583", "shape": [64], "dtype": "float32"}, {"name": "21603", "shape": [1, 1, 64, 20], "dtype": "float32"}, {"name": "21607", "shape": [20], "dtype": "float32"}, {"name": "PartitionedCall/model_1/tf.concat_592/concat/axis", "shape": [], "dtype": "int32"}, {"name": "PartitionedCall/model_1/tf.compat.v1.transpose_1156/transpose/perm", "shape": [4], "dtype": "int32"}, {"name": "PartitionedCall/model_1/tf.reshape_2/Reshape/shape", "shape": [3], "dtype": "int32"}, {"name": "PartitionedCall/model_1/tf.concat_593/concat/axis", "shape": [], "dtype": "int32"}, {"name": "21647", "shape": [3], "dtype": "int32"}, {"name": "21649", "shape": [3], "dtype": "int32"}, {"name": "PartitionedCall/model_1/tf.strided_slice_17/StridedSlice/strides", "shape": [3], "dtype": "int32"}, {"name": "PartitionedCall/model_1/output0/concat/axis", "shape": [], "dtype": "int32"}]}]}